checkpoints_certain/policy-checkpoint.ckpt (torch, 541527 bytes, 6 tensors)

dense1.weight f4 [512, 4]
-0.20094162 0.13230234 -0.15746504 0.11653936 -0.13386917 1.2757864 0.19341996 0.13962086
-0.69271153 -0.42128876 0.11631074 -0.36501235 -0.22828041 -0.23646402 0.7937456 -0.022663176
-1.0449469 -0.4069151 1.0815982 0.43206936 -0.9948249 0.9881173 0.232844 -0.5195461
-0.38697246 1.146771 0.09394667 -1.1937331 -0.99315464 -0.3133072 0.85598856 0.3646599
0.15163833 -0.8316875 -0.027163487 0.24465261 0.33497155 0.50664055 -1.360498 -0.8738306
-1.5517557 0.28940162 0.43493822 -0.08465667 0.30580556 0.6020055 0.67277026 0.3409485
-0.11153639 1.2124122 -0.48167738 -0.40719143 1.0126048 -0.25024846 0.5792083 -0.023129957
-0.15748765 0.28584957 0.9013999 -0.81664264 0.8371034 0.05892558 -0.7609308 0.5367986
-0.34024143 0.8683173 0.22554937 -0.5913152 0.41336206 0.27094102 -0.89697224 -0.20972106
-0.20118487 -0.17321762 0.05882631 -0.10629756 -1.4075675 0.048774254 -0.4973109 0.5766176
0.4504497 0.6748335 0.2731142 -1.1929629 0.3899177 -0.07881649 1.7766583 -0.39469028
0.46254504 0.95683956 -0.22189867 -0.46843743 -0.68357056 0.42227077 1.337897 -0.40683195
-0.17014322 -0.090427645 1.0447284 0.6532648 0.17489076 -0.70362216 0.2628316 0.73879385
-0.17285852 0.062945336 0.938743 0.5151364 -0.86805534 0.603679 1.0762056 -0.90035
0.2601873 -0.39025807 -0.62184453 1.0460429 -0.82842153 0.48549846 0.7918228 -1.0924215
0.52917826 -0.18727474 -0.57023126 -0.17965002 0.3304078 0.50528824 -0.28717577 -0.044605657
-0.7016229 0.9445887 0.6181159 -0.045026384 -0.5778761 0.35537797 0.7584879 -0.012537157
-0.4227035 0.37152004 -0.6960258 1.174583 0.36831385 -0.046103217 -1.1465039 -0.17817503
0.78263557 0.74236834 -0.3194266 0.5081732 0.57497615 0.6372854 0.24683604 -0.5701214
-0.48692328 1.1296519 -0.82463694 -0.64655846 -0.044038303 1.0398792 0.032654196 -0.7806574
0.3592061 -0.8153539 0.48531792 0.3356379 -0.29861444 -0.0023714507 0.7782011 -0.28236434
-0.40006715 -0.43257648 -0.25178176 0.978839 -0.45103633 0.52039975 0.8493369 -1.1026925
-0.71629894 0.5225311 -0.117765985 0.2725775 0.6553481 0.22008179 0.12229111 -0.82507044
-0.021552762 0.4896594 1.0288212 0.17337966 0.43432578 0.41117096 0.060511593 0.36765152
-0.49955454 0.059528414 0.043840777 0.05134457 0.4848092 -0.07856955 -1.01364 0.04189162
0.1289314 -1.0069822 -0.35408568 0.7819217 -0.26663104 0.93071526 -0.06671681 -1.1237719
-0.04033339 -0.11438614 -0.7221923 0.18346407 0.34539708 0.13308786 -0.82045746 -0.29891983
0.1986572 0.18187349 -0.13064577 -0.091791205 0.37584057 -0.21620896 -0.5125927 0.21641055
0.29537466 1.3527472 0.018743534 -0.32720625 -0.259565 -0.6188166 0.074114546 -0.53694904
-0.3225422 -0.04299636 0.4095336 -0.43161017 0.027929474 -0.7416242 0.05000733 0.8408226
-0.70967543 -0.12368258 -0.38001472 -0.3267661 0.0416726 -0.6976355 0.007283587 0.7786725
0.82861316 0.23336306 -0.75015205 -0.016263893 -1.1340894 -0.3465075 1.1220133 0.0013183991
00000000: a4c3 4dbe 447a 073e 843e 21be 30ac ee3d
00000010: 0015 09be f84c a33f e20f 463e c5f8 0e3e
00000020: 8b55 31bf 29b3 d7be 5334 ee3d e6e2 babe
00000030: 57c2 69be a023 72be e932 4b3f 20a8 b9bc
00000040: d2c0 85bf 2d57 d0be cf71 8a3f 3238 dd3e
00000050: d8ac 7ebf 41f5 7c3f a86e 6e3e f900 05bf
00000060: 4121 c6be 64c9 923f 1d67 c03d 3fcc 98bf
00000070: 623f 7ebf cd69 a0be 1122 5b3f b4b4 ba3e
00000080: 1447 1b3e 79e9 54bf f685 debc 3786 7a3e
00000090: 6481 ab3e 32b3 013f cc24 aebf 5db3 5fbf
000000a0: ee9f c6bf 732c 943e 39b0 de3e 7a60 adbd
000000b0: 8c92 9c3e 081d 1a3f ac3a 2c3f cd90 ae3e
000000c0: 316d e4bd 5330 9b3f 6b9e f6be 657b d0be
000000d0: 099d 813f 9120 80be ff46 143f 097b bdbc
000000e0: 7144 21be e05a 923e 25c2 663f 7e0f 51bf
000000f0: 694c 563f f35b 713d 5ccc 42bf a26b 093f
00000100: 2034 aebe 0b4a 5e3f 6af6 663e 6f60 17bf
00000110: 31a4 d33e c8b8 8a3e f99f 65bf 1ec1 56be
00000120: 6803 4ebe f65f 31be dbf3 703d 89b2 d9bd
00000130: 2c2b b4bf 83c7 473d 899f febe 369d 133f
00000140: 58a1 e63e e3c1 2c3f a0d5 8b3e 02b3 98bf
00000150: 4ba3 c73e 8a6a a1bd 8a69 e33f d814 cabe
00000160: b4d2 ec3e 70f3 743f 6839 63be 08d7 efbe
00000170: 7bfe 2ebf e033 d83e 3540 ab3f 474c d0be
00000180: 063a 2ebe 2132 b9bd a9b9 853f 5d3c 273f
00000190: 9016 333e 9520 34bf dd91 863e 9821 3d3f
000001a0: d301 31be 7ce9 803d 7651 703f fbdf 033f
000001b0: e038 5ebf b58a 1a3f 1bc1 893f 567d 66bf
000001c0: 4537 853e e8cf c7be 3431 1fbf bce4 853f
000001d0: 6f13 54bf 4193 f83e e6b4 4a3f 78d4 8bbf
000001e0: 3a78 073f f3c4 3fbe adfa 11bf 2df6 37be
000001f0: 362b a93e 925a 013f b408 93be 6cb4 36bd
00000200: 8f9d 33bf 91d0 713f d83c 1e3f 966d 38bd
00000210: b0ef 13bf 1af4 b53e 432c 423f a668 4dbc
00000220: 986c d8be e037 be3e bf2e 32bf bc58 963f
00000230: a293 bc3e bad6 3cbd a4c0 92bf 8473 36be
00000240: ce5a 483f da0b 3e3f e28b a3be a417 023f
00000250: a331 133f 2325 233f 96c2 7c3e 7af3 11bf
00000260: 024e f9be 6f98 903f 681b 53bf db84 25bf
00000270: 8261 34bd c31a 853f 68c0 053d 2ad9 47bf
00000280: dde9 b73e 08bb 50bf 977b f83e bbd8 ab3e
00000290: fee3 98be 576a 1bbb 3038 473f 0f92 90be
000002a0: 9ad5 ccbe aa7a ddbe 8ae9 80be 3195 7a3f
000002b0: 3cee e6be eb38 053f 256e 593f 0725 8dbf
000002c0: 5e5f 37bf 99c4 053f 4b2f f1bd 478f 8b3e
000002d0: e5c4 273f 1f5d 613e c373 fa3d d137 53bf
000002e0: 6b8f b0bc a3b4 fa3e 6ab0 833f 708a 313e
000002f0: f35f de3e 0085 d23e 01db 773d d23c bc3e
00000300: 9dc5 ffbe 11d4 733d 6392 333d af4e 523d
00000310: e938 f83e 12e9 a0bd f5be 81bf 8c96 2b3d
00000320: 9806 043e cbe4 80bf b84a b5be 052c 483f
00000330: dd83 88be 5b43 6e3f d3a2 88bd c2d7 8fbf
00000340: a034 25bd 4843 eabd 98e1 38bf 01de 3b3e
00000350: e3d7 b03e 2f48 083e 8009 52bf 050c 99be
00000360: cb6c 4b3e 0b3d 3a3e 01c8 05be 07fd bbbd
00000370: 2d6e c03e e265 5dbe 4639 03bf ba9a 5d3e
00000380: 593b 973e d226 ad3f 0a8c 993c 9487 a7be
00000390: b4e5 84be c46a 1ebf 5ec9 973d 7e75 09bf
000003a0: 4024 a5be f41c 30bd 63ae d13e 02fc dcbe
000003b0: 5acc e43c 15db 3dbf 7cd4 4c3d 2640 573f
000003c0: 4aad 35bf 4b4d fdbd 4a91 c2be e34d a7be
000003d0: e3b0 2a3d 3d98 32bf 28ab ee3b 1557 473f
000003e0: fe1f 543f baf6 6e3e f709 40bf db3b 85bc
000003f0: d729 91bf 6e69 b1be 229e 8f3f 22ce ac3a

dense1.bias f4 [512]
-0.48526907 -0.6334469 0.08763002 0.041490205 -0.30397192 -0.13034038 0.0021403907 -0.36152604
0.028854495 -0.5958156 -0.010972766 -0.37359953 -0.5833954 -0.4922949 0.49489632 -0.6235566
-0.3222315 -0.2818097 -0.3772425 -0.7162272 -0.12546933 -0.5460263 -0.262179 -0.49828273
-0.40891024 -0.47306713 -0.58135986 -0.30298546 -0.42517665 -0.33136103 -0.1793313 0.15343936
0.14240216 -0.42660514 0.18809012 -0.42511475 0.08280246 -0.026868567 -0.5653366 -0.08598776
0.15184519 0.14515334 -0.3105861 -0.42659768 -0.02692126 -0.42744765 -0.16418672 -0.76645386
-0.3171252 -0.4609957 -0.3848936 -0.10899362 -0.21830443 -0.29777357 -0.4501463 -0.08617053
-0.01687985 -0.16378231 -0.32441366 -0.50408363 0.117284946 -0.49829352 -0.055343524 -0.43725985
-0.2905882 -0.47318202 -0.42556193 -0.13845712 -0.30516398 -0.42377788 -0.39119193 -0.22183645
-0.25467515 -0.6307655 -0.42316154 -0.24712585 -0.2505793 -0.0806959 -0.8179855 -0.42462292
-0.42721543 -0.3932218 -0.538214 -0.3805197 -0.19836065 -0.36047637 -0.0030343358 -0.58012915
0.043678682 -0.269481 -0.44134933 -0.503135 -0.38266528 0.021795435 -0.44345438 -0.48855954
-0.44117156 -0.37862507 -0.13154948 -0.09414684 -0.0975888 -0.38542715 -0.12333487 0.15930662
-0.12628663 -0.1095945 -0.296604 -0.47006917 -0.028230647 -0.16437969 -0.34478188 -0.40532607
-0.29179257 -0.21344154 0.22418427 -0.70358115 -0.11810092 -0.3715303 -0.24420397 -0.36556625
-0.48658577 -0.51992416 0.048671152 -0.59836394 -0.06001908 -0.17644355 0.32880455 -0.14901789
-0.39892235 -0.45547768 -0.40686494 -0.4933706 -0.280288 -0.59043294 -0.4799197 -0.5917441
-0.25290492 -0.33718842 -0.2198578 -0.3886324 -0.40872642 -0.5245896 -0.46872628 -0.04907633
-0.3958486 0.09888342 -0.56082106 0.02719593 -0.6435061 -0.31209266 -0.012515842 -0.44884294
-0.2924799 -0.21706666 -0.40449739 -0.33701736 0.057852857 -0.22128385 -0.3410164 -0.27457428
-0.5438946 -0.4415751 -0.20617081 -0.060003556 -0.28877702 -0.46600494 -0.4854247 -0.0576772
0.46800703 -0.12110461 -0.3837366 -0.20278962 -0.12569189 -0.71427375 0.11433559 -0.38295993
-0.11144344 -0.13060501 -0.24332365 -0.11075299 -0.4423273 -0.18222928 -0.29267296 -0.39601475
0.07685407 -0.13805617 -0.027346015 -0.64793295 -0.13919906 -0.5538973 -0.4679719 -0.11483925
-0.15097 -0.2142804 -0.4593907 -0.3463785 -0.16337554 -0.09835589 -0.48978323 -0.007440447
0.076101415 -0.29988015 -0.34664816 -0.36762187 -0.37874046 -0.012340387 -0.44544607 -0.5090417
-0.05157223 0.6111689 -0.046274025 -0.18873277 -0.50014853 -0.44982272 -0.43212402 -0.31940013
-0.35757446 -0.77804345 -0.5668284 -0.054249547 -0.42869508 -0.34408128 -0.26299983 -0.24050578
-0.26293454 -0.3470857 -0.4511675 -0.3942306 0.39959294 -0.09837015 0.1768047 -0.04042202
-0.4098646 -0.309094 -0.12269874 -0.44867605 -0.9539416 -0.15967192 -0.14460887 -0.13106024
-0.9764741 0.137088 0.044224884 -0.34566525 -0.41880584 -0.29910934 -0.24033779 -0.30841112
-0.53524905 -0.15484837 -0.24272846 -0.26196447 -0.6287512 -0.51843125 -0.117180705 0.00043969264
00000000: 3075 f8be 9329 22bf 5e77 b33d a2f1 293d
00000010: 35a2 9bbe f377 05be cc45 0c3b f119 b9be
00000020: 4360 ec3c 5f87 18bf 1ec7 33bc 7048 bfbe
00000030: 6759 15bf 140e fcbe 0d63 fd3e 68a1 1fbf
00000040: 87fb a4be 5c49 90be ee25 c1be aa5a 37bf
00000050: 087b 00be 61c8 0bbf 533c 86be ea1e ffbe
00000060: af5c d1be db35 f2be 00d4 14bf e920 9bbe
00000070: c1b0 d9be 27a8 a9be a0a2 37be 351f 1d3e
00000080: dfd1 113e fd6b dabe b29a 403e a4a8 d9be
00000090: 5694 a93d 781b dcbc e6b9 10bf 5a1a b0bd
000000a0: 4e7d 1b3e 14a3 143e 2405 9fbe 036b dabe
000000b0: f989 dcbc 6bda dabe 9020 28be 5236 44bf
000000c0: 3c5e a2be a107 ecbe c610 c5be 0c38 dfbd
000000d0: 328b 5fbe c775 98be 9379 e6be 2d7a b0bd
000000e0: 9c47 8abc 8db6 27be 8c19 a6be a00b 01bf
000000f0: 1733 f03d 5420 ffbe e4af 62bd 86e0 dfbe
00000100: fac7 94be ea44 f2be 41e3 d9be b4c7 0dbe
00000110: 743e 9cbe 6af9 d8be 4f4a c8be 1829 63be
00000120: c864 82be d979 21bf a1a8 d8be 8f0e 7dbe
00000130: ee4b 80be e443 a5bd 7f67 51bf 2d68 d9be
00000140: fbbb dabe 5e54 c9be 65c8 09bf 7ad3 c2be
00000150: 0e1f 4bbe 5c90 b8be b5db 46bb 5883 14bf
00000160: 6be8 323d 6af9 89be 8af8 e1be 75cd 00bf
00000170: b4ec c3be 578c b23c 740c e3be 7a24 fabe
00000180: 3de1 e1be 25db c1be e8b4 06be 0fd0 c0bd
00000190: a3dc c7bd b556 c5be fe96 fcbd 4621 233e
000001a0: 4851 01be 1573 e0bd 7bdc 97be e8ac f0be
000001b0: f543 e7bc 2653 28be 4087 b0be e686 cfbe
000001c0: d665 95be 6b90 5abe 9090 653e e51d 34bf
000001d0: e5de f1bd 3839 bebe 9b10 7abe 802b bbbe
000001e0: c521 f9be c019 05bf 675b 473d 612e 19bf
000001f0: 91d6 75bd 9ead 34be 1259 a83e 2598 18be
00000200: 8d3f ccbe 5f34 e9be 9a50 d0be 129b fcbe
00000210: e981 8fbe 9d26 17bf 09b8 f5be 8b7c 17bf
00000220: c17c 81be f6a3 acbe 6722 61be d3fa c6be
00000230: 9744 d1be 814b 06bf e4fc efbe 4304 49bd
00000240: abac cabe 6483 ca3d f891 0fbf 00ca de3c
00000250: d1bc 24bf 9cca 9fbe 3f0f 4dbc bece e5be
00000260: edbf 95be b946 5ebe 481a cfbe 8a8d acbe
00000270: 1ef7 6c3d 3c98 62be b499 aebe 0095 8cbe
00000280: ad3c 0bbf 2216 e2be 711e 53be 4ac6 75bd
00000290: 95da 93be 3398 eebe 9689 f8be ed3e 6cbd
000002a0: 9e9e ef3e b205 f8bd 2079 c4be 15a8 4fbe
000002b0: 60b5 00be a5da 36bf c728 ea3d 5313 c4be
000002c0: 753c e4bd 52bd 05be d629 79be 77d2 e2bd
000002d0: b978 e2be 509a 3abe 3bd9 95be 72c2 cabe
000002e0: ab65 9d3d 995e 0dbe c004 e0bc efde 25bf
000002f0: 338a 0ebe 37cc 0dbf 039a efbe d730 ebbd
00000300: e197 1abe 526c 5bbe 4235 ebbe 8658 b1be
00000310: eb4b 27be d06e c9bd dec4 fabe fece f3bb
00000320: 0fdb 9b3d e489 99be de7b b1be ef38 bcbe
00000330: 45ea c1be 562f 4abc 8211 e4be 8f50 02bf
00000340: 673d 53bd 9175 1c3f d589 3dbd 2a43 41be
00000350: bc09 00bf 2a4f e6be 5c3f ddbe 6a88 a3be
00000360: 0014 b7be db2d 47bf ab1b 11bf c634 5ebd
00000370: ec7d dbbe 6c2b b0be eaa7 86be 2647 76be
00000380: 5b9f 86be 38b5 b1be 6dff e6be 98d8 c9be
00000390: 7297 cc3e 4a76 c9bd 4b0c 353e 8f91 25bd
000003a0: c6d9 d1be 9241 9ebe 7a49 fbbd deb8 e5be
000003b0: 8435 74bf 0981 23be 5914 14be a834 06be
000003c0: 35fa 79bf cc60 0c3e 2725 353d 09fb b0be
000003d0: b86d d6be dc24 99be 1c1b 76be 10e8 9dbe
000003e0: 1506 09bf 9290 1ebe cf8d 78be 3520 86be
000003f0: d7f5 20bf e9b7 04bf 70fc efbd 8c86 e639

dense2.weight f4 [256, 512]
-0.03813524 -0.08959008 -0.017958656 -0.012024913 -0.23463449 -0.09007742 0.12636068 -0.31171307
-0.1141399 0.040941533 0.11295912 -0.006587915 -0.032213192 -0.19845477 0.027964003 0.090330586
-0.2141395 0.08887747 -0.030363679 -0.969646 -0.9390415 -0.011330023 0.03058615 0.013560968
-0.13845272 -0.038903594 0.04033453 -0.22074333 -0.060184468 -0.5420683 0.18948464 0.1800843
0.116265856 -0.12506521 -0.19262224 0.09923671 -0.41032583 -0.048594613 -0.25360215 -0.012111165
-0.28393066 -0.002552398 -0.35281402 -0.0673577 -0.16858238 -0.15987608 -0.21277854 -0.02261659
-0.10631637 -0.1982648 -0.28213015 0.25164646 0.027790995 0.13753116 -0.00993643 0.06874848
-0.7765078 0.19110875 -0.19527486 0.014577031 0.046279754 -0.0030388334 -0.26324558 0.037134957
0.28352374 -0.0148834735 0.02238443 0.059811432 -0.023985995 -0.5964018 -0.30572027 -0.39171234
-0.3001327 -0.002192758 -0.60154694 0.06741932 0.16320474 0.2942501 0.02556013 0.34114462
0.028159086 -0.0077333245 -0.22337666 0.0025035827 0.2520349 -0.067119606 -0.1871052 0.11982554
-0.2463587 0.1944417 0.42879477 -0.056772385 -0.07969064 -0.20279163 0.20878634 -0.069101594
0.033001 -0.22656247 -0.36252525 -0.019421326 -0.041708626 -0.067850344 0.4520009 -0.24166493
0.2369474 -0.070968814 -0.13244547 0.01629923 -0.11216717 -0.14865553 -0.33975562 0.04157299
-0.23813559 0.10662325 -0.39661264 -0.017344845 -0.23713057 0.24794035 0.105200775 -0.2925393
-0.029442322 -0.8440244 -0.034943927 0.038472418 0.026539678 0.1957828 0.107463114 -0.07282669
-0.16942811 0.057483174 -0.9493908 0.037619542 0.11851982 -0.008809263 0.18879561 -0.08659311
-0.18157695 0.08426502 -0.0070163887 -0.27947277 -0.12867339 -0.034575384 0.26595324 -0.11034414
-0.019092686 -0.13184154 0.022158574 -0.181642 0.022354428 0.31990474 -0.24873014 -0.2411183
-0.094154365 0.32139337 -0.15881006 -0.42312762 0.00027468195 -0.6238965 -0.13734218 0.28762758
0.003263374 -0.096111774 -0.21232998 -0.016045576 0.24876274 0.19691567 0.027665628 0.22657394
0.016175624 -0.94326645 -0.065010466 -0.11584128 0.11902732 -0.08532419 -0.07185677 -0.021917153
-0.23757625 -0.16211386 -0.033337854 0.049693342 -0.15020074 -0.16885284 0.020908387 -0.32507226
0.34537974 -0.06271838 -0.13285688 -0.035487905 -0.17172065 -0.0052044685 0.023324432 0.0045876494
0.17092739 -0.18514472 -0.014399199 0.093077876 0.17956279 0.13559113 -0.04855442 0.12250069
0.04223856 -0.21039684 -0.09571852 0.2808314 -0.18869506 -0.07935365 -0.11540531 -0.014447518
-0.09287618 0.005108315 0.4109583 -0.10501416 -0.0010248832 0.007267584 -0.1195985 -0.23735072
0.12779766 -0.14623088 -0.034982637 -0.8419352 -0.32596672 0.20848928 -0.23284182 -0.1509713
-0.5115872 -1.1547288 0.090723194 -0.35451224 0.041915327 -0.3268189 -0.0035167723 0.05150653
-0.062622875 -0.16063942 -0.8051842 0.3611858 0.022603942 -0.07065586 -0.14152706 -0.022740986
0.027582202 -0.0060243555 -0.19703105 -0.2953317 0.00019854167 0.16381119 0.03072888 -0.07484189
-0.038014837 0.011073689 -0.06032165 0.1023819 -0.45186934 -0.0011276237 0.20801374 -0.44999593
00000000: b333 1cbd 017b b7bd 081e 93bc 2404 45bc
00000010: 0644 70be 837a b8bd b264 013e db98 9fbe
00000020: 2ec2 e9bd 4fb2 273d 1c57 e73d 70df d7bb
00000030: fbf1 03bd ba37 4bbe c414 e53c 3eff b83d
00000040: 6347 5bbe 6405 b63d 40bd f8bc b83a 78bf
00000050: 0665 70bf 90a1 39bc ce8f fa3c d32e 5e3c
00000060: 8dc6 0dbe 6059 1fbd d235 253d 8a0a 62be
00000070: fd83 76bd fdc4 0abf 4308 423e 0568 383e
00000080: cb1c ee3d 1811 00be c43e 45be 9e3c cb3d
00000090: 3a16 d2be 250b 47bd 24d8 81be e86d 46bc
000000a0: 5c5f 91be 2246 27bb 0aa4 b4be d5f2 89bd
000000b0: dca0 2cbe 8eb6 23be 9ee2 59be 6d46 b9bc
000000c0: 66bc d9bd ed05 4bbe 5d73 90be ced7 803e
000000d0: f1a9 e33c f8d4 0c3e 68cc 22bc 01cc 8c3d
000000e0: 37c9 46bf 03b2 433e 22f6 47be 80d4 6e3c
000000f0: d78f 3d3d 2a27 47bb 20c8 86be d31a 183d
00000100: 062a 913e d0d9 73bc 8d5f b73c d5fc 743d
00000110: 477e c4bc caad 18bf 5e87 9cbe 858e c8be
00000120: feaa 99be 60b4 0fbb fbfe 19bf 2413 8a3d
00000130: 251f 273e f3a7 963e 7a63 d13c 82aa ae3e
00000140: e2ad e63c d467 fdbb dabc 64be 2613 243b
00000150: b80a 813e 0176 89bd 8198 3fbe 1867 f53d
00000160: 7445 7cbe ba1b 473e fd8a db3e 298a 68bd
00000170: d934 a3bd 9ca8 4fbe 16cc 553e 2385 8dbd
00000180: 0e2c 073d feff 67be e99c b9be 7919 9fbc
00000190: aad6 2abd 1ff5 8abd a96c e73e 0377 77be
000001a0: 57a2 723e 1958 91bd c99f 07be f685 853c
000001b0: e7b7 e5bd 2839 18be 73f4 adbe 7148 2a3d
000001c0: d1d9 73be 4a5d da3d d010 cbbe c716 8ebc
000001d0: 5bd2 72be 13e4 7d3e 8173 d73d b6c7 95be
000001e0: 0631 f1bc fc11 58bf 5d21 0fbd 4195 1d3d
000001f0: bd69 d93c 497b 483e 9f15 dc3d 2926 95bd
00000200: 907e 2dbe 7a73 6b3d 470b 73bf f316 1a3d
00000210: 85ba f23d ba54 10bc a353 413e ba57 b1bd
00000220: 4fef 39be 2493 ac3d bce9 e5bb 0e17 8fbe
00000230: f5c2 03be eb9e 0dbd 062b 883e 1cfc e1bd
00000240: 4468 9cbc 7801 07be e685 b53c 5c00 3abe
00000250: a220 b73c 8eca a33e 1db3 7ebe b7e7 76be
00000260: 01d4 c0bd ac8d a43e 1b9f 22be 2fa4 d8be
00000270: 3003 9039 aeb7 1fbf 6ea3 0cbe ec43 933e
00000280: 55de 553b 40d6 c4bd 086d 59be 0372 83bc
00000290: a9bb 7e3e 43a4 493e 07a3 e23c 0003 683e
000002a0: be82 843c e979 71bf 3524 85bd 313e edbd
000002b0: 98c4 f33d 73be aebd a429 93bd 9a8b b3bc
000002c0: 3047 73be 2d01 26be 468d 08bd 3f8b 4b3d
000002d0: 39ce 19be c2e7 2cbe 1148 ab3c df6f a6be
000002e0: 9dd5 b03e 7e72 80bd a20b 08be c45b 11bd
000002f0: 8ad7 2fbe 3f8a aabb e112 bf3c fe53 963b
00000300: 9707 2f3e 9496 3dbe 9eea 6bbc 9d9f be3d
00000310: 4fdf 373e 67d8 0a3e 00e1 46bd a4e1 fa3d
00000320: 5702 2d3d 4572 57be 1208 c4bd 22c9 8f3e
00000330: 4739 41be 2b84 a2bd 9f59 ecbd 48b5 6cbc
00000340: de35 bebd a763 a73b 2069 d23e aa11 d7bd
00000350: 6055 86ba ea24 ee3b 0ff0 f4bd 110c 73be
00000360: 64dd 023e 8cbd 15be f449 0fbd 1189 57bf
00000370: 1ce5 a6be 377e 553e 166e 6ebe 3898 1abe
00000380: 61f7 02bf 27ce 93bf 15cd b93d a182 b5be
00000390: 68af 2b3d cf54 a7be a679 66bb 83f8 523d
000003a0: 6c40 80bd a97e 24be 8d20 4ebf 58ed b83e
000003b0: e72b b93c 05b4 90bd 78ec 10be 4e4b babc
000003c0: 12f4 e13c f567 c5bb 82c2 49be b735 97be
000003d0: a02f 5039 1fbe 273e 22bb fb3c b446 99bd
000003e0: 72b5 1bbd 6b6e 353c d613 77bd 9aad d13d
000003f0: 6b5b e7be c6cc 93ba 8e01 553e de65 e6be

dense2.bias f4 [256]
0.014652496 -0.049145766 -0.036843803 0.017126225 0.014253839 0.033436842 -0.047212753 -0.061411723
0.0041156085 0.015814416 -0.058513314 -0.02537843 -0.03992064 0.017772825 0.010401323 -0.05288458
-0.03944091 -0.004591653 0.028593384 -0.026141878 0.0029432662 -0.003420887 -0.091606356 -0.05296053
0.008530533 -0.038717367 0.019899774 -0.03269704 -0.03921368 0.013171861 -0.11203476 -0.03443857
-0.020744497 -0.050478123 -0.022260685 0.0058930786 -0.052324787 -0.00668832 -0.033618685 -0.01904529
-0.20157033 -0.010649497 -0.0077246875 0.0051391153 -0.033136044 0.01450632 0.031750217 -0.016481396
0.3420874 -0.01910635 -0.0338211 -0.02851988 0.013949599 0.0091182105 0.015572011 -0.026246555
-0.031579267 -0.063585214 -0.014286935 -0.05143054 -0.062858485 -0.25464404 -0.04291644 0.0030194903
-0.051860232 -0.01684298 -0.049588345 -0.032615475 -0.017132534 -0.0021926467 -0.056285143 -0.035070125
-0.019522116 -0.046859715 -0.00615065 -0.040982522 -0.00066572614 -0.007914836 -0.03973428 0.022335071
0.021980409 -0.041345224 -0.025642332 -0.047202483 -0.22064394 -0.019171339 0.0030180002 -0.02808844
-0.027486661 -0.048297316 0.031343166 -0.005893778 -0.011288642 -0.006910859 -0.13240732 0.008781359
0.008059227 0.0388136 -0.07897078 0.05415352 -0.025762467 0.01581943 -0.047882065 0.014317171
0.02669714 0.016483597 -0.4283605 -0.0399672 -0.021607049 -0.09326762 -0.029824909 -0.02783529
-0.0044076554 -0.013057582 -0.016183985 -0.070305705 0.025093608 0.01754284 0.014335799 -0.05078046
-0.0005578492 -0.017628165 0.06702652 -0.009777815 0.053567328 0.0033451673 -0.040664274 -0.018573698
-0.036118366 -0.2747629 -0.043887693 -0.015879642 -0.023954682 -0.21801974 -0.049713276 0.0006197952
-0.051072646 -0.038045198 0.01622304 0.015154805 0.02157715 -0.019450663 0.016019873 -0.0818302
0.023854055 -0.04895119 -0.05903755 0.006888843 0.019606296 0.0021801898 -0.036002554 -0.0078047733
0.029876623 -0.018984366 -0.0473963 -0.04676436 -0.06419247 -0.02026873 -0.06222921 -0.031432986
0.017949563 0.010037303 -0.073292546 -0.04644016 -0.0480189 -0.06348467 0.021211676 -0.19037375
-0.021836542 -0.10464297 -0.022519015 -0.04773933 -0.05003173 -0.0005480023 -0.041945755 -0.051025555
0.006943522 -0.0129608195 0.025063556 -0.044036932 -0.056901053 -0.050552268 -0.01968086 -0.017528059
-0.005640562 -0.035641793 -0.03764428 0.027884725 -0.01891725 -0.021340813 0.023176465 -0.033679105
-0.04231101 -0.102877446 0.005321918 -0.032819673 -0.03664224 -0.033434287 0.27792472 -0.029140823
-0.030492833 -0.21486214 0.031992085 -0.02066267 -0.06336069 0.014977064 -0.042293817 -0.05180819
0.0091085015 -0.015342234 -0.052400805 0.011167542 0.26157567 -0.02668038 -0.06943538 -0.0010479875
0.1471737 0.025506247 0.057949856 -0.020711523 0.020519406 -0.008042563 0.027510628 -0.0067376606
-0.012101263 -0.070534304 -0.04796724 0.014720645 -0.035114158 -0.043470822 -0.06783715 -0.013229514
-0.00933325 -0.29802552 -0.3004049 -0.05632339 -0.026732352 0.023997989 -0.039500993 -0.014916796
0.031879447 0.033790257 -0.0060100453 0.030389115 -0.084164895 -0.021847475 -0.23854391 -0.17862834
-0.006471635 -0.046136484 -0.16145982 -0.040690787 0.010464307 -0.05156581 -0.010678939 -0.013029717
00000000: 0611 703c 124d 49bd 87e9 16bd 4c4c 8c3c
00000010: ef88 693c 12f5 083d 2962 41bd dc8a 7bbd
00000020: 3adc 863b 3c8d 813c a8ab 6fbd 6de6 cfbc
00000030: d383 23bd 5198 913c 506a 2a3c 809d 58bd
00000040: cb8c 21bd 9475 96bb ac3c ea3c 7e27 d6bc
00000050: d0e3 403b f630 60bb 1d9c bbbd 24ed 58bd
00000060: a6c3 0b3c 1a96 1ebd da04 a33c 55ed 05bd
00000070: 869e 20bd cace 573c 7b72 e5bd 750f 0dbd
00000080: 5df0 a9bc 26c2 4ebd 0a5c b6bc ba1a c13b
00000090: 8452 56bd b229 dbbb bfb3 09bd de04 9cbc
000000a0: 7468 4ebe 3a7b 2ebc 601f fdbb 0666 a83b
000000b0: a9b9 07bd eaab 6d3c 840c 023d fe03 87bc
000000c0: 1426 af3e ec84 9cbc fe87 0abd 86a2 e9bc
000000d0: dc8c 643c 8c64 153c bf21 7f3c 0403 d7bc
000000e0: 4359 01bd f738 82bd c013 6abc d4a8 52bd
000000f0: f3bb 80bd b460 82be 26c9 2fbd a4e2 453b
00000100: 656b 54bd 4afa 89bc 261d 4bbd ce97 05bd
00000110: 8759 8cbc 82b2 0fbb 408b 66bd b1a5 0fbd
00000120: d8ec 9fbc f9ef 3fbd 648b c9bb 4add 27bd
00000130: 2084 2eba 3aad 01bc 6ac0 22bd 0af8 b63c
00000140: 4210 b43c 9c59 29bd de0f d2bc 6457 41bd
00000150: 7cf0 61be 360d 9dbc a4c9 453b ba19 e6bc
00000160: b52b e1bc 68d3 45bd b161 003d 9820 c1bb
00000170: fff3 38bc 7d74 e2bb c995 07be b0df 0f3c
00000180: d90a 043c 02fb 1e3d 6fbb a1bd 15d0 5d3d
00000190: cf0b d3bc c097 813c fc1f 44bd 9192 6a3c
000001a0: f6b3 da3c 9c08 873c 1152 dbbe a6b4 23bd
000001b0: 4401 b1bc 1803 bfbd 5e53 f4bc d606 e4bc
000001c0: 186e 90bb 78ef 55bc 4794 84bc 70fc 8fbd
000001d0: 1c91 cd3c 01b6 8f3c b3e0 6a3c 2cff 4fbd
000001e0: a03c 12ba f168 90bc 3345 893d 2133 20bc
000001f0: 6a69 5b3d 983a 5b3b 958f 26bd de27 98bc
00000200: daf0 13bd b9ad 8cbe 95c3 33bd 0616 82bc
00000210: 9c3c c4bc 9140 5fbe 26a0 4bbd c079 223a
00000220: 8d31 51bd 48d5 1bbd 2ee6 843c dc4b 783c
00000230: 90c2 b03c ff56 9fbc 1c3c 833c 9896 a7bd
00000240: 9469 c33c 0b81 48bd 5cd1 71bd cebb e13b
00000250: 629d a03c 84e1 0e3b 6a77 13bd 2fbf ffbb
00000260: d2bf f43c 1a85 9bbc 9f22 42bd fc8b 3fbd
00000270: 5777 83bd 9c0a a6bc 0ee4 7ebd e0bf 00bd
00000280: f60a 933c 8073 243c 671a 96bd 0a38 3ebd
00000290: 77af 44bd 4004 82bd 1cc4 ad3c 56f1 42be
000002a0: 8ce2 b2bc 0e4f d6bd cc79 b8bc 518a 43bd
000002b0: 12ee 4cbd d0a7 0fba 50cf 2bbd 2c00 51bd
000002c0: 7c86 e33b 9e59 54bc 1652 cd3c 1260 34bd
000002d0: 1411 69bd e50f 4fbd c139 a1bc 0197 8fbc
000002e0: 77d4 b8bb 21fd 11bd e330 1abd 826e e43c
000002f0: 59f8 9abc eed2 aebc 92dc bd3c 1af3 09bd
00000300: 4f4e 2dbd 69b1 d2bd 7c63 ae3b ec6d 06bd
00000310: 2c16 16bd 64f2 08bd 264c 8e3e bcb8 eebc
00000320: 1bcc f9bc d204 5cbe 220a 033d c244 a9bc
00000330: 40c3 81bd 5c62 753c 483c 2dbd d334 54bd
00000340: d33b 153c fe5d 7bbc 3aa2 56bd 11f8 363c
00000350: 3fed 853e d090 dabc 2334 8ebd a05c 89ba
00000360: b4b4 163e 7af2 d03c d45c 6d3d 36ab a9bc
00000370: 5018 a83c f4c4 03bc f85d e13c 98c7 dcbb
00000380: 6044 46bc 4a74 90bd 4c79 44bd dc2e 713c
00000390: ddd3 0fbd 760e 32bd 34ee 8abd 9ac0 58bc
000003a0: 7dea 18bc cd96 98be acce 99be 5bb3 66bd
000003b0: cefd dabc 6e97 c43c cbcb 21bd 9465 74bc
000003c0: 0694 023d a767 0a3d eaef c4bb 98f2 f83c
000003d0: a55e acbd 7af9 b2bc db44 74be 59ea 36be
000003e0: 0210 d4bb 9cf9 3cbd b955 25be 62ab 26bd
000003f0: 7c72 2b3c ac36 53bd b7f6 2ebc 987a 55bc

dense3.weight f4 [4, 256]
0.50560874 0.030044697 -0.0055633513 -0.029023476 0.027087526 0.001092637 -0.03712478 0.03202265
0.022219576 -0.023072021 0.014861573 0.034182936 0.05200882 0.030824166 0.052128784 -0.0051925136
-0.053431887 0.012150283 -0.048493154 0.001970362 0.0046333866 -0.01098806 -0.23744911 -0.019554066
-0.054303017 -0.026685819 0.011695415 0.053367388 -0.03302096 -0.04028098 0.0039409054 -0.03127419
0.055800676 -0.010304741 0.016443081 0.00579891 0.04110711 0.015268019 -0.0121037075 -0.02524902
0.3982972 0.017523104 -0.0641366 -0.05278377 -0.026853822 -0.017370326 0.017724212 -0.007672757
-0.70993644 0.01828798 -0.012698107 0.03925277 -0.031248996 0.020544928 -0.019976646 -0.026662804
0.030320618 0.010811313 0.026272722 -0.014724932 -0.020054324 -0.81121475 -0.022923805 -0.01938617
-0.04355428 0.023032118 0.0035814913 -0.026394833 0.018451124 0.0065242113 -0.09300716 -0.006175541
-0.070052505 -0.015276596 -0.018583968 0.041218016 0.01881735 0.027434748 0.029284613 -0.033336632
0.0323285 0.04222191 0.0037994 -0.0023897141 -0.15696335 -0.04149842 0.046768155 -0.031871103
0.059271708 -0.008384202 0.022309165 -0.040248223 0.03976006 0.017865349 0.058041986 0.06018495
0.016684592 0.26002228 0.8286157 0.14739025 0.033685975 0.05745667 -0.042271316 -0.013170677
0.021738587 0.033120986 0.31987867 0.022131292 0.0067358715 -0.02067764 -0.057260264 -0.01597619
0.041264493 0.042142197 -0.071804345 -0.0019315542 0.040273145 -0.051950093 0.034198433 0.03660427
0.05150354 0.00338066 0.58462465 -0.0073372074 0.55040884 -0.004253369 -0.049804244 -0.01804553
-0.009218368 0.9850522 0.04425763 0.043679878 -0.039956376 0.30597717 -0.066934034 -0.05274627
0.0044088373 0.004462159 0.33605304 -0.0026672366 -0.19358009 0.009664116 -0.027819425 -0.4000879
0.024865733 0.017234266 0.0031186198 0.0032001557 -0.012173682 0.05586726 0.02753146 0.03662901
0.051234104 -0.0029321555 0.030773517 -0.054362416 -0.005120725 -0.026370823 -0.0027362418 0.020152025
-0.034289856 0.046473477 1.0250112 0.049381148 0.056203477 -0.0050988756 0.05062842 0.23374963
-0.04968428 0.030456163 0.017545685 0.017362166 0.024911446 0.0011981996 -0.010620531 -0.006148531
-0.030821042 -0.05511396 -0.037921008 0.024408394 -0.000976799 0.036978416 -0.025999136 0.0716415
0.008086623 0.034597974 -0.036558628 0.0044043656 -0.010488241 0.037757695 -0.040430836 -0.0006475393
0.0017986586 -0.019821541 -0.002960464 -0.0075771324 0.05231663 0.0090418905 -0.13831171 -0.0243322
0.043186054 1.5907979 0.050841924 -0.014212155 0.08395808 0.0050277514 -0.033058256 -0.032673266
-0.016320702 -0.033546396 0.024661206 0.034841 0.83956957 0.02548635 0.021590196 0.016419452
-0.29456562 -0.030293863 -1.8700918 0.021280741 0.031236812 -0.0018118424 0.054872 0.033548627
-0.0029810837 -0.019466452 -0.016324755 0.022028178 -0.024293989 -0.040040262 0.039243646 0.0055467514
0.042503737 -0.09173764 0.62759054 0.040115032 0.038737297 0.0062688785 -0.019209106 -0.05979321
0.022825114 -0.011064599 0.036861658 0.033499118 -0.06887304 -0.03992379 1.0476592 -0.5043644
0.04911942 0.050866287 -0.8410719 -0.028740518 0.023764905 -0.01405661 -0.053036466 0.02115757
00000000: 936f 013f 4c20 f63c c64c b6bb a4c2 edbc
00000010: a9e6 dd3c d036 8f3a 2710 18bd 2f2a 033d
00000020: d405 b63c 8901 bdbc f57d 733c 6803 0c3d
00000030: 3307 553d f682 fc3c fe84 553d f625 aabb
00000040: 65db 5abd fb11 473c c2a0 46bd 3021 013b
00000050: aad3 973b 4407 34bc dc25 73be d92f a0bc
00000060: d76c 5ebd 389c dabc 209e 3f3c c397 5a3d
00000070: fc40 07bd abfd 24bd b622 813b 5d19 00bd
00000080: 408f 643d 37d5 28bc a4b3 863c c804 be3b
00000090: ee5f 283d b726 7a3c a14e 46bc 08d7 cebc
000000a0: 9ced cb3e 9d8c 8f3c 0d5a 83bd cb33 58bd
000000b0: 8cfc dbbc 374c 8ebc 5e32 913c c06b fbbb
000000c0: 65be 35bf add0 953c b90b 50bc 83c7 203d
000000d0: e5fd ffbc d64d a83c 10a6 a3bc f46b dabc
000000e0: f262 f83c ef21 313c e439 d73c d740 71bc
000000f0: f748 a4bc c5ab 4fbf b4ca bbbc bfcf 9ebc
00000100: f965 32bd daad bc3c 74b7 6a3b fa39 d8bc
00000110: d026 973c 0dc9 d53b 8a7a bebd 315c cabb
00000120: b077 8fbd b04a 7abc 683d 98bc 39d4 283d
00000130: d826 9a3c d6be e03c 49e6 ef3c fe8b 08bd
00000140: e46a 043d e2f0 2c3d 5bff 783b c09c 1cbb
00000150: 00bb 20be 3ffa 29bd f78f 3f3d 468b 02bd
00000160: e4c6 723d e45d 09bc b6c1 b63c 52db 24bd
00000170: 72db 223d 5a5a 923c 6fbd 6d3d 7e84 763d
00000180: 20ae 883c a421 853e 2920 543f 78ed 163e
00000190: 4efa 093d af57 6b3d b024 2dbd d3c9 57bc
000001a0: 1f15 b23c dfa9 073d 23c7 a33e af4c b53c
000001b0: 96b8 dc3b 2764 a9bc bd89 6abd 80e0 82bc
000001c0: f504 293d 4c9d 2c3d 280e 93bd 342c fdba
000001d0: 74f5 243d 9fc9 54bd a813 0c3d 5cee 153d
000001e0: 60f5 523d 108e 5d3b f6a9 153f f56c f0bb
000001f0: 98e7 0c3f d85f 8bbb 89ff 4bbd 38d4 93bc
00000200: a308 17bc 622c 7c3f 7d47 353d ace9 323d
00000210: 4ca9 23bd 0aa9 9c3e b614 89bd 790c 58bd
00000220: 0278 903b 4d37 923b 250f ac3e cecc 2ebb
00000230: dc39 46be 3e56 1e3c 90e5 e3bc 52d8 ccbe
00000240: 39b3 cb3c e02e 8d3c c261 4c3b b4b9 513b
00000250: 2074 47bc 11d5 643d a889 e13c 4d08 163d
00000260: dada 513d 6829 40bb be18 fc3c 20ab 5ebd
00000270: c1cb a7bb a007 d8bc 8552 33bb dc15 a53c
00000280: 8573 0cbd f95a 3e3d 9133 833f e343 4a3d
00000290: 9e35 663d 7814 a7bb bf5f 4f3d 105c 6f3e
000002a0: be81 4bbd 347f f93c f8bb 8f3c 1a3b 8e3c
000002b0: 1713 cc3c e80c 9d3a bc01 2ebc 9e79 c9bb
000002c0: 697c fcbc 2dbf 61bd 0f53 1bbd 1df4 c73c
000002d0: f007 80ba ae76 173d 24fc d4bc c7b8 923d
000002e0: c17d 043c 9bb6 0d3d 80be 15bd 7f52 903b
000002f0: dfd6 2bbc d0a7 1a3d ce9a 25bd a0bf 29ba
00000300: f8c0 eb3a c960 a2bc 5804 42bb 9849 f8bb
00000310: f649 563d 7024 143c 96a1 0dbe 5254 c7bc
00000320: dce3 303d 449f cb3f 9f3f 503d 19da 68bc
00000330: 37f2 ab3d d6bf a43b 1868 07bd 67d4 05bd
00000340: feb2 85bc f267 09bd 4c06 ca3c 70b5 0e3d
00000350: 08ee 563f c0c8 d03c ecdd b03c 1682 863c
00000360: 4ed1 96be d62a f8bc 2b5f efbf f354 ae3c
00000370: 58e4 ff3c 587b edba 76c1 603d 496a 093d
00000380: 495e 43bb 1c78 9fbc 7ebb 85bc 7074 b43c
00000390: 3004 c7bc 4201 24bd f2bd 203d 86c1 b53b
000003a0: 6618 2e3d f2e0 bbbd c6a9 203f a94f 243d
000003b0: 00ab 1e3d 2a6b cd3b 6a5c 9dbc bae9 74bd
000003c0: bcfb ba3c 4b48 35bc 40fc 163d 5f36 093d
000003d0: 4f0d 8dbd 2187 23bd b219 863f 061e 01bf
000003e0: 7231 493d 2b59 503d 7d50 57bf 3c71 ebbc
000003f0: 9eae c23c b24d 66bc c43c 59bd a452 ad3c

dense3.bias f4 [4]
-0.44847974 -0.44340068 -0.24953218 -0.6828591
00000000: 239f e5be 6a05 e3be 5d85 7fbe dbcf 2ebf
