checkpoints/policy-checkpoint.ckpt (torch, 541527 bytes, 6 tensors)

dense1.weight f4 [512, 4]
000000 8c 30 a3 be c6 5b 15 be 9d da 31 bf 2e f2 e5 be
       -0.31872976 -0.1458579 -0.694742 -0.4491133
000010 49 cb 9d 3e 10 7d db bd 02 7c 91 bf bd ac 75 3f
       0.30819157 -0.10717213 -1.1365969 0.959667
000020 82 15 f8 3e 57 4b 33 be 6f fc a0 3d 44 26 84 bd
       0.4845391 -0.17509209 0.07860648 -0.06452611
000030 00 1c 8e 3d aa 60 3c 3f 55 6c c4 3f b5 76 93 bf
       0.06938934 0.73585 1.534556 -1.1520602
000040 00 9b ad bc 33 19 90 3e cf 0b 1e bf af 5a 2f 3f
       -0.021192074 0.28144225 -0.6173677 0.6849775
000050 29 04 94 bd 17 de f2 3e 4d 8c 47 3f 30 29 ea 3f
       -0.07227356 0.47435066 0.77948457 1.829382
000060 fd 10 57 bf e6 76 e5 3e c1 40 bf be 58 88 90 bf
       -0.840103 0.44817275 -0.3735409 -1.1291609
000070 a3 fb 55 3e cc 31 66 3f e0 e2 c2 be 5c 51 c1 bf
       0.20896773 0.89919734 -0.38063717 -1.5102954
000080 95 c3 09 3e 9a 2b 5a be 7a 0d 00 3f 8f e3 9a bd
       0.13453515 -0.21305695 0.50020564 -0.075629346
000090 d9 7f 93 3e e4 94 bc be 47 5b a5 3f 9c 18 9a 3b
       0.28808478 -0.36832345 1.2918481 0.0047026407
0000a0 d3 ad bb 3e 7c b8 8b 3e ae 57 aa bf 1a 93 95 bd
       0.36656055 0.27289188 -1.3308008 -0.07303448
0000b0 bc c4 1b bf b6 d4 b4 3e 6b a8 9a be 3e dd 07 bf
       -0.6084707 0.35318536 -0.30206618 -0.53071964
0000c0 51 fa cc 3e 52 c7 9a bf 45 b9 58 be 4f 1f 27 40
       0.40034726 -1.2092078 -0.21164425 2.611286
0000d0 b9 22 34 bf 2b 44 8f be be 24 99 bf e2 54 bd 3e
       -0.7036548 -0.27981696 -1.1964338 0.36978823
0000e0 0d 17 25 be 19 11 50 3f 4a fb 2d be 08 93 95 bf
       -0.16122074 0.8127609 -0.1699039 -1.1685495
0000f0 28 ad 81 bd 89 2d 94 be cc 44 ef be fe ec 95 3f
       -0.06331855 -0.2894099 -0.46732175 1.1712949
000100 1b 37 9e be a6 1a ab bf 40 8b ea be 2f 1d 39 bf
       -0.30901417 -1.3367507 -0.45809364 -0.72310156
000110 a8 43 ba 3c 36 37 e6 be 7a bc 85 3f 82 bb 50 be
       0.02273734 -0.44963998 1.0448143 -0.20384029
000120 31 0e 66 bf b5 87 a7 bd 44 90 82 3f a2 8f 22 bf
       -0.89865404 -0.08180181 1.0200276 -0.63500416
000130 7a 37 89 3f de b5 8b be 49 81 b8 bf ae 6e 28 3e
       1.0720055 -0.2728719 -1.4414455 0.16448471
000140 c4 08 9b be 02 80 c1 bb a2 3c 60 bf 3a ba 94 3e
       -0.30280125 -0.0059051523 -0.8759252 0.2904833
000150 79 ec 09 3f ff 4c 3b bf 9e 6f e3 be 80 08 a9 3f
       0.53876454 -0.7316436 -0.44421095 1.3205719
000160 7e 0e 0d bf bd b5 f4 3e 56 4b 42 3f 95 80 85 bf
       -0.5510024 0.47794905 0.75896204 -1.0429865
000170 52 7c ed be 68 7e f9 be 7f 9b 7b 3e aa f9 00 3e
       -0.4638391 -0.48729253 0.24571036 0.1259524
000180 0e cd c2 be b3 05 aa bf 15 89 e6 bc b2 13 96 3d
       -0.3804707 -1.3282989 -0.028141538 0.07327975
000190 af 03 48 bf d3 80 0a 3f 62 d2 38 3f 2a 3b 30 bf
       -0.7813062 0.5410282 0.7219602 -0.6884028
0001a0 ee 00 a6 be 2d 46 27 be f2 49 99 bf 75 ab 2d bf
       -0.32422584 -0.16335364 -1.1975691 -0.6783975
0001b0 21 df 69 3f 33 04 0c 3e 6c a5 a5 3f 53 69 0b 3b
       0.9135609 0.13673477 1.2941108 0.0021272495
0001c0 35 1b 52 bf 79 83 3d bf 60 4d 89 3f 2c 95 4c be
       -0.82072765 -0.74028736 1.0726738 -0.1997878
0001d0 a4 8f ec 3e 57 bf 86 be 0c 18 ed bf 4d 28 43 3f
       0.4620334 -0.26317856 -1.8522964 0.7623337
0001e0 ed 32 f8 3e 77 73 48 bf 56 f0 3e bf d0 b8 63 be
       0.48476353 -0.78301185 -0.74585474 -0.22238469
0001f0 af 2a 3b bf 2a eb e2 be 4a 79 32 be a2 be 8e 3e
       -0.73112005 -0.4432004 -0.1742908 0.27879816
000200 20 6a ce be 99 55 17 3f ad c0 26 be 26 74 19 3f
       -0.40315342 0.59114987 -0.16284437 0.59942853
000210 37 c0 95 bd 18 86 82 3e 79 25 bb 3f 18 9e 1c bf
       -0.07312053 0.2549293 1.4620811 -0.6117873
000220 3d b1 2e 3e 2a f9 fe 3e 56 48 63 3d da a8 2e 3f
       0.17059799 0.49799472 0.055488907 0.682264
000230 b0 9f 44 3f 75 27 dd bc 45 e2 06 3e 35 4a 96 3f
       0.76806164 -0.026996354 0.13172252 1.1741396
000240 9f 19 32 bd 5f 7d 6e be 1c c2 03 bf d3 9c 0c bd
       -0.043481465 -0.23290013 -0.5146806 -0.034329247
000250 77 83 9d 3e 70 a4 be be b8 c6 5c 3f 5f 9f 42 3f
       0.30764362 -0.3723483 0.8624072 0.7602443
000260 67 cd 3a bf 17 2a 26 3e 3c 52 13 3f b9 1c 9c be
       -0.7296967 0.16226994 0.57547355 -0.30490664
000270 91 fe a3 be af ca 59 be 89 9a 1f 3f ab ee 0a 3f
       -0.32030156 -0.21268724 0.62345177 0.5427043
000280 4e f8 c2 3e 49 6c 0e be 62 01 8d 3f 21 e3 6f bf
       0.38080066 -0.13908495 1.1016047 -0.93705946
000290 c6 46 cf be 3a c0 f5 bd a5 42 54 3f 93 6a df 3e
       -0.40483683 -0.11999555 0.8291419 0.43635997
0002a0 d0 c9 81 3f 1d 2f 36 3d b6 5a 5f bf 62 db c8 3c
       1.0139713 0.044478524 -0.8724779 0.024518672
0002b0 d7 b7 c9 3d d2 79 21 bf 13 49 ea be 97 1f 2a 3d
       0.09849518 -0.6307651 -0.45758876 0.041534033
0002c0 05 39 14 be 51 63 e5 bd 70 0b 57 3e 52 ac 77 be
       -0.14474876 -0.11200584 0.21000457 -0.24186829
0002d0 c2 9a 98 3e 68 18 f2 3e b7 e9 67 be f7 ee d4 bf
       0.2980557 0.47284245 -0.22647749 -1.6635426
0002e0 ec ab 32 bf e7 7e 8d 3f 62 27 e3 3e 82 71 85 be
       -0.6979358 1.1054353 0.44365984 -0.26063162
0002f0 a7 06 ea 3e 94 2d 62 bf ad 5d 45 3e 92 73 01 bf
       0.457082 -0.88350797 0.19274016 -0.5056697
000300 58 d8 bf 3e 10 10 b6 3d bd 9e 0d 3e 9b cd 94 3e
       0.37469745 0.088897824 0.13830085 0.29063115
000310 e1 aa 8d bf a4 a7 80 be 53 26 e6 3e 78 94 91 3e
       -1.1067773 -0.251279 0.44951114 0.28433585
000320 77 57 a9 bd bb 95 dd be 7d c9 a4 3f d6 5c 11 3f
       -0.08268636 -0.43278298 1.2873989 0.5678228
000330 ca 34 8f 3e d7 ea c3 bd 76 ed f5 3d 56 1d 04 be
       0.27969962 -0.095662765 0.12008183 -0.12901816
000340 71 b1 b0 be 9c 6c 03 3f 69 b0 d8 bf bb 74 10 be
       -0.34510377 0.513376 -1.6928836 -0.14107029
000350 0e db 21 be 93 e6 51 3e e9 c8 89 3b 52 3d 05 3f
       -0.15806219 0.20498113 0.0042048586 0.5204669
000360 4a f8 6a be e6 af 3c 3f 1f a7 2e 3d 0b 8b 88 3f
       -0.22946277 0.737059 0.042639848 1.0667433
000370 f1 cb 59 bf ba 3b 5b 3e ee d0 c2 3f 5a 59 ed be
       -0.85076815 0.21409503 1.522001 -0.46357232
000380 27 a7 a6 be bf f7 50 3f 16 aa 8a 3d b5 33 be bf
       -0.32549402 0.8162803 0.067707226 -1.485953
000390 e6 65 49 be b5 0d af be 03 da cb bf 60 b0 51 3f
       -0.19667777 -0.34190145 -1.5925907 0.8190975
0003a0 23 17 fc be 3c ea 3a be b0 66 7a 3f 41 a4 27 3f
       -0.49236402 -0.18253416 0.9781294 0.65485007
0003b0 d7 c2 c4 bd ce 52 37 3e 38 c6 f1 3d 64 6c 1f 3e
       -0.09607475 0.17902681 0.11805385 0.15568691
0003c0 dd ef 56 be be 4f c8 3e 41 7c 0e 3f 03 48 d9 3d
       -0.20989938 0.39123338 0.55658346 0.10609438
0003d0 07 cf 21 3e 8a c0 7a 3f ff 9b 92 be fd e2 95 bf
       0.15801631 0.9795004 -0.2863464 -1.1709896
0003e0 73 d8 e8 3e 9f a7 1a bf 4d 88 7a bf 2d b3 87 3f
       0.45477638 -0.6041202 -0.9786423 1.0601555
0003f0 26 1f f3 3d 29 c7 aa be 3b 10 05 bf 1f 9c 7f 3e
       0.118711755 -0.33355072 -0.5197789 0.24961899

dense1.bias f4 [512]
000000 6f 6f 2a bf 3d 7d 37 bf 8f 3a 23 bf 24 93 73 bf
       -0.66576284 -0.71675473 -0.6376123 -0.95146394
000010 b3 10 35 bf 5d 9a 64 bf e4 96 06 bf b2 30 ae bf
       -0.70728606 -0.8929804 -0.5257399 -1.3608611
000020 e4 7f f3 be 2e 4a 74 bf 46 eb 33 bf f4 4e 7e bf
       -0.4755851 -0.9542569 -0.70280874 -0.9933922
000030 24 d4 8f be 99 13 03 bf 53 60 54 bf 30 b1 64 bf
       -0.28091538 -0.5120178 -0.8295948 -0.89332867
000040 24 13 2f be 13 68 5c bf c6 0a 83 bf 5c f1 88 bf
       -0.17097145 -0.86096305 -1.0237663 -1.0698657
000050 fa 35 01 bf 69 fd 19 bf cf d5 23 bf 69 70 34 bf
       -0.50472987 -0.601523 -0.6399812 -0.70484024
000060 1f 9a 72 bc ae 7f 3c be e9 d9 73 bf 11 9d 0a bf
       -0.014807253 -0.18408081 -0.9525438 -0.54145914
000070 59 a3 34 bf f6 fd 03 bf d7 5c aa be 37 75 b0 be
       -0.7056175 -0.5155939 -0.33273956 -0.34464428
000080 fd 3b 5d bf 18 bb 2a bf 9a c7 64 bf f0 bd 8b bf
       -0.8641966 -0.6669173 -0.8936707 -1.0917339
000090 1d 4b e4 be c1 fd 25 bf 2b 40 58 bf 49 7c 41 bf
       -0.44588557 -0.6484032 -0.8447291 -0.7558027
0000a0 ad a5 e4 be 8d 39 7c bf a2 2e 82 bf 5a e8 4e bf
       -0.4465765 -0.98525316 -1.0170481 -0.8082329
0000b0 d7 6a 08 bf 12 64 58 bf 97 19 07 bf 83 03 3f bf
       -0.53288025 -0.84527695 -0.5277342 -0.74614733
0000c0 83 18 03 bf 17 90 83 be 3c 8e 1d bf c3 1e ca be
       -0.51209277 -0.2569587 -0.6154516 -0.39476594
0000d0 22 09 86 be af 5d 13 bf 05 1d 1c bf f0 7b 57 bf
       -0.26178843 -0.57564825 -0.6098178 -0.8417349
0000e0 92 aa 8c bf b1 03 67 bf e8 4a 41 bf 1a cc a3 be
       -1.0989554 -0.9024001 -0.7550492 -0.31991655
0000f0 46 65 48 bf 1a 08 1e bf 6d e2 1d bf 29 57 42 bf
       -0.7827953 -0.6173111 -0.61673623 -0.75914246
000100 bb 71 9d be 2d 61 4f bf 84 47 00 bf 80 a4 9e be
       -0.30750832 -0.81007653 -0.50109124 -0.3098488
000110 fd ce 5d bf 8e 77 5d bf 7d 0d 5c bf ea ae 3b bf
       -0.86643964 -0.8651055 -0.8595808 -0.7331377
000120 7d 30 64 bf 66 9a 05 bf 1f d9 14 bf 36 d9 4a bf
       -0.8913649 -0.5218872 -0.581438 -0.7923769
000130 79 8c 4b bf 33 7e 8e bd aa b2 04 bf 6a b7 f7 be
       -0.7951122 -0.06957664 -0.5183512 -0.4838212
000140 b1 d8 12 bf 1e 12 ec be 6b b1 3f bf aa 5b 4f bf
       -0.57361895 -0.46107572 -0.74880093 -0.80999243
000150 5d 77 45 bf d2 ce 08 3e ed 3a 7c bf a0 39 1c bf
       -0.7713526 0.13360146 -0.98527414 -0.6102543
000160 42 94 ef be 22 95 8a bf 8c 1f 24 bf c5 67 2d bf
       -0.467928 -1.0826762 -0.64110637 -0.67736465
000170 02 ce 15 3d d0 d1 2b bf da f7 4a bf de bc 2f bf
       0.036573417 -0.67117023 -0.7928444 -0.68647563
000180 7c 41 22 bf 6b b7 44 bf dd b7 21 bf 97 7e 55 bf
       -0.6338117 -0.76842374 -0.6317118 -0.83396286
000190 bc 79 ca be 95 e4 24 bf 72 4d 4b bf 47 4a 1e bf
       -0.39546 -0.6441129 -0.7941505 -0.6183209
0001a0 4a 9b 40 bf 73 ba 32 bf 33 77 43 bf bf 4f 5a bf
       -0.7523695 -0.6981575 -0.7635376 -0.8527793
0001b0 5b b1 41 bf 8f c5 40 bf a5 cb 11 bf 1c 98 57 bf
       -0.7566125 -0.7530145 -0.5695136 -0.84216475
0001c0 24 18 73 bf b9 c6 2d bf bd 1d ff bd 19 e3 03 bf
       -0.9495871 -0.6788135 -0.12456844 -0.515184
0001d0 89 23 57 bf 6e af 0b bf d7 22 14 bf a1 f1 24 bf
       -0.840386 -0.5456456 -0.5786566 -0.64431196
0001e0 f3 bb 04 bf 09 29 1b bf cc 5b fd be f1 8f 50 bf
       -0.5184929 -0.6060949 -0.49484098 -0.8146964
0001f0 c1 41 52 bf 8f ed 1c bf 08 48 06 bf b9 7a 09 bf
       -0.8213158 -0.61299986 -0.5245366 -0.53702885
000200 9c c4 47 bf 34 2d 32 bf 98 a8 3c bf e9 1f ec be
       -0.7803438 -0.69600224 -0.73694754 -0.46118096
000210 fa 24 04 bf 82 05 16 bf 88 3b 40 bf 6c 3b 4c bf
       -0.5161892 -0.58602154 -0.7509084 -0.7977817
000220 06 5b 31 bf 9d 1a 3c bf b1 f2 4d bf 65 b1 3d bf
       -0.69279516 -0.7347811 -0.8044844 -0.7409881
000230 f5 9f 4e bf 86 fc 7e be 1f bc cf be d3 42 57 bf
       -0.80712825 -0.24901018 -0.40573213 -0.8408634
000240 d1 0c 5b bf 05 01 25 bf aa 7e 45 bf 60 ea 60 bf
       -0.8556643 -0.6445468 -0.771464 -0.8785763
000250 e8 2f 5a bf c9 c5 46 bf 1a ba 31 bf ee 05 08 bf
       -0.8522935 -0.77645546 -0.69424593 -0.5313405
000260 77 5b 53 bc 7b a3 83 bf 71 60 70 bf 21 db 51 bf
       -0.012900225 -1.0284265 -0.9389716 -0.8197499
000270 24 7b 2c bf ea 26 43 bf 4c 1a 88 be 46 48 81 bf
       -0.673754 -0.76231253 -0.26582563 -1.0100181
000280 34 a8 ff be 17 8e 19 bf 7e ba 00 bf 7c 86 5d bf
       -0.49933016 -0.59982437 -0.50284564 -0.8653333
000290 e2 80 4f bf 62 16 20 bf f2 a0 67 bf a1 0b 49 be
       -0.81056035 -0.62534153 -0.9047996 -0.19633342
0002a0 0c 5f 0c bf d6 42 99 be 08 d2 50 bf 1e 63 41 bf
       -0.5483253 -0.29933804 -0.8157048 -0.75541866
0002b0 1e dd 2c bf cd c9 48 bf e5 bd cb be 30 bd 22 bf
       -0.675249 -0.78432924 -0.39793316 -0.6356993
0002c0 37 b9 84 bf 56 dd 83 bf da 96 5b bf db 74 2c bf
       -1.0369023 -1.0301921 -0.85777056 -0.6736581
0002d0 f3 c8 40 bf c4 4a 2e bf da 5a 25 be 05 80 25 bf
       -0.75306624 -0.68082833 -0.16147938 -0.6464847
0002e0 94 b8 de bd 35 0d 22 bf 1b df 8a bf 3b 5e 3c bf
       -0.10875049 -0.633014 -1.0849336 -0.73581284
0002f0 5d 3f 50 bf 22 bf 1f bf ad 62 38 bf b0 e3 61 bf
       -0.81346685 -0.6240102 -0.7202557 -0.8823805
000300 14 34 3f be 8d dd 84 bf c1 ca 37 bf 7f 35 25 bf
       -0.1867221 -1.0380112 -0.7179375 -0.64534754
000310 2f e9 4f bf e5 ff 5d bf 02 2d 35 bf 55 63 31 bf
       -0.81215185 -0.8671859 -0.707718 -0.69292194
000320 dd 1b ad be 89 93 95 be 6c 9b 85 bf 47 7c 39 bf
       -0.3381032 -0.29214123 -1.0438056 -0.7245526
000330 ff e4 42 bf fe 61 70 be 16 79 fc be 6a 94 34 bf
       -0.7613067 -0.23474881 -0.4931113 -0.7053896
000340 9d 28 4c bf a9 f9 7b bf be 36 9b bd e1 e9 84 bf
       -0.7974947 -0.98427826 -0.075788006 -1.0383874
000350 e1 f0 7b bf 3a c8 2f bf 80 d2 50 bf 22 52 4c bf
       -0.9841443 -0.68664896 -0.815712 -0.79812825
000360 6a 1e 35 bf 7e b6 4d bf a5 9e 38 bf 1a 65 c6 be
       -0.70749533 -0.80356586 -0.7211707 -0.3874901
000370 a8 7b 2d bf ed a9 4d bf 16 99 2c bf 66 b5 3b bf
       -0.6776681 -0.8033741 -0.6742109 -0.7332367
000380 65 ec 5f bf 06 6d 79 bf ad fd 95 bf 59 66 36 bf
       -0.87470084 -0.9743198 -1.1718041 -0.7124992
000390 42 4f b8 3e d0 f8 26 bf 0a 27 4a bf 8a 61 c8 be
       0.3599797 -0.6522341 -0.7896582 -0.39136916
0003a0 b0 7c 37 bf fa 9d 2a bf 32 4b 26 bf 65 3d 07 bf
       -0.71674633 -0.66647303 -0.6495849 -0.52828056
0003b0 3a ad f5 be 54 ba 4f bf 6d db 4a bf 96 26 4b bf
       -0.47983724 -0.8114369 -0.7924107 -0.7935575
0003c0 8c 93 fc be b4 c6 1e bf dc 40 2a bf 86 a9 26 bf
       -0.4933132 -0.62021947 -0.6650522 -0.6510242
0003d0 d6 ff 39 bf 21 dd 28 bf 89 e7 15 bf d7 cf 4c bf
       -0.72656 -0.65962416 -0.5855642 -0.8000464
0003e0 e4 c3 4d bf d1 e7 43 bf 44 46 d3 be 5f ec 30 bf
       -0.8037703 -0.765256 -0.41264546 -0.69110674
0003f0 cd bf 1e bf ed 46 28 be 73 dd 29 bf a5 50 34 bf
       -0.62011415 -0.16433306 -0.6635353 -0.70435554

dense2.weight f4 [256, 512]
000000 8b 4e 74 bd 03 90 99 3c 6a 95 64 bc 02 d6 6f 3c
       -0.059645217 0.018745428 -0.013951639 0.014638426
000010 e4 86 de bb 18 82 62 bd ef 7a 08 bd 17 43 eb 3c
       -0.0067909826 -0.05529985 -0.033320364 0.028718514
000020 e5 d6 ca bb 9f 00 23 bd f3 3c 03 3d 68 6d 9e bb
       -0.006190168 -0.039795514 0.032040548 -0.0048348196
000030 b5 e0 b6 bb a2 7a 27 bd c0 60 5a 3c a1 e4 8f bc
       -0.0055809864 -0.040888436 0.013328731 -0.017565073
000040 d8 fa 65 bc d3 9d 05 bd 36 4e c0 bc 2e d1 dc bc
       -0.014036857 -0.032621216 -0.023474794 -0.026955213
000050 22 25 b8 3c fa 15 fc bc 6b a3 20 bd f2 ea 2d 3c
       0.022478644 -0.030772198 -0.039218348 0.010615097
000060 d8 ac 18 bd 3c d6 fa bc c3 b3 93 bc fc 36 f8 bc
       -0.03727421 -0.030619733 -0.018030053 -0.030299656
000070 4b 17 d3 bc b6 a8 ea bc e1 a4 91 bc b4 96 38 bc
       -0.025767943 -0.0286449 -0.017778816 -0.011266399
000080 84 4a 81 3c 11 89 b6 3c 70 fd ea bc b4 46 25 3d
       0.015782602 0.022282155 -0.028685302 0.04035063
000090 35 ae cc bc 7f 0f 24 bd 50 37 ae bb 6a 61 9d bc
       -0.024985412 -0.04005384 -0.0053166524 -0.01921149
0000a0 a6 73 02 bd 2c 4b 99 3c 59 6e a5 bc c9 e4 01 3d
       -0.031848572 0.018712603 -0.02019422 0.031712327
0000b0 85 22 06 3d 55 bb b4 bc a2 da 56 3c 96 b7 8c 3c
       0.032747764 -0.022061983 0.01311365 0.017177384
0000c0 9d b5 95 bc b9 cd e8 bc 6a 9e 1b bd 24 d7 96 bb
       -0.018275077 -0.028418409 -0.037992872 -0.0046032835
0000d0 80 c1 81 b9 d3 24 1f bc 22 c7 3f 3c 75 b1 1a 3c
       -0.00024748966 -0.009713369 0.011705192 0.009441723
0000e0 ac 2b 8f 3c 50 9c d7 3a c0 8f b1 3b c8 61 2d bb
       0.017476879 0.0016449783 0.0054187477 -0.0026455987
0000f0 1d 7e 7e bd 64 d4 20 bd c0 d3 ab 39 02 a1 d3 3c
       -0.06213199 -0.03926505 0.00032773428 0.02583361
000100 c9 1b 2c bd 30 b1 50 bd 66 44 c1 3b ad c5 78 bc
       -0.042018685 -0.05095023 0.0058980463 -0.015183848
000110 2e 14 5e bd d2 c1 86 3b 31 db 4a 3c 84 0f 4f 3c
       -0.054218464 0.0041124607 0.012381361 0.012637977
000120 f6 f9 a1 bc d3 5b 1f bd 35 47 87 bc ae 34 89 3c
       -0.019772511 -0.03890593 -0.016513446 0.016748752
000130 bb bd 1e bd 71 db ff 3c 1c 47 af 3c e8 eb 2a bc
       -0.03875516 0.031232568 0.021396212 -0.010432221
000140 40 f0 b3 bb 70 03 e7 bc 60 1e db 39 99 fb 47 bd
       -0.0054912865 -0.028199881 0.00041793566 -0.048823927
000150 7e f7 c1 3c df d5 f1 bc 55 4d 30 3d c3 74 37 bd
       0.023677584 -0.029520927 0.0430425 -0.044789087
000160 94 c6 30 bd 10 de bc 3b 48 2d 72 3c 3e 59 80 3c
       -0.04315813 0.0057637766 0.014781304 0.015667554
000170 1c ac 9f bc f7 6f 77 3c c8 af 4b 3b 07 47 5b bd
       -0.019491248 0.015102378 0.0031080116 -0.053534534
000180 c0 0b d1 bc 40 25 99 bb e6 c5 9d bb 4c 0a 11 3b
       -0.025518298 -0.00467363 -0.004814851 0.0022131382
000190 f0 ce d1 bc 66 c2 2e bd b6 a2 22 3c dd 3a d4 3c
       -0.02561137 -0.04266586 0.009926489 0.025906974
0001a0 4c 09 16 bd 53 01 47 3c d6 c3 16 bd 00 f6 2d 3a
       -0.03662996 0.012146312 -0.036807857 0.0006636083
0001b0 5c 65 4c bd b2 2f 45 bc bf 32 3e bc 6a e6 42 bd
       -0.04990135 -0.012035297 -0.0116087785 -0.04758302
0001c0 3a 15 6f 3c 1a 1a 8d bb 76 16 b8 3b 15 62 20 3d
       0.014592463 -0.00430609 0.005617912 0.03915604
0001d0 6e e3 b3 bc c5 bc 58 bd 42 11 0b bd a1 38 09 bd
       -0.021959033 -0.0529144 -0.033952005 -0.03350127
0001e0 c4 b1 3c 3c 5a 54 71 3c 5d 6b 49 bc 9b 33 26 3d
       0.011516992 0.014729584 -0.012293664 0.04057656
0001f0 0f 19 bd bc a0 a0 7a 39 cf af ab 3c c8 00 e3 bb
       -0.023083238 0.00023901695 0.020957856 -0.0069275834
000200 20 a7 9e bc 89 fe ea bc e0 2a 1d 3b 78 12 08 3c
       -0.0193668 -0.028685825 0.0023981854 0.008305185
000210 f1 72 61 bc 4c 17 61 bc b1 e9 02 3d dc 3f 44 bd
       -0.013760314 -0.013738465 0.031961147 -0.047912464
000220 0a cf 48 bc 79 b3 1e 3d 2a 8d f6 3c 50 04 49 3a
       -0.012256393 0.038745377 0.03009661 0.0007668184
000230 6a 9d 99 3c a7 fb 91 3c 7d e6 2a bd 81 61 95 bc
       0.018751819 0.017820193 -0.041723717 -0.01823497
000240 30 5e 25 3b 11 7a d1 3c 58 94 1f bc c0 76 cb b9
       0.0025233142 0.025570901 -0.009739958 -0.00038807653
000250 4c e8 40 bd 24 1a 88 3c cc c9 37 bd 32 03 93 3c
       -0.047096536 0.016614027 -0.044870183 0.01794586
000260 0b 22 d6 3c c8 c9 b8 bb 80 52 b5 bc 44 c3 5d 3c
       0.02613928 -0.0056392886 -0.022134066 0.0135353245
000270 73 5b 1c bd c1 a5 04 bd 28 4b 13 bd dd f9 a9 3c
       -0.03817315 -0.032384638 -0.035960346 0.020749027
000280 5c ba 14 3c 63 4d da 3c 4f c5 4c bd d9 49 d3 bb
       0.009077635 0.026648229 -0.049992856 -0.0064480123
000290 bf af 25 bd 6c b6 ca bb 36 3c 0e bd 74 c5 6b bc
       -0.040450808 -0.006186297 -0.03472539 -0.014390338
0002a0 4a 4e 41 bd d2 5c 0d bd 91 99 dd bc 2c c9 f1 bc
       -0.047193803 -0.03451235 -0.027050765 -0.029514872
0002b0 aa fb 94 3c c4 81 59 3c 10 28 8d 3a 29 9c 13 bc
       0.018186409 0.013275567 0.0010769386 -0.009009399
0002c0 88 52 91 3c 1b 55 c3 3c 27 bd 31 3d 41 79 2b bd
       0.01773955 0.023844292 0.04339328 -0.041863684
0002d0 d1 b2 20 3d c2 53 37 bd 1c ce b1 bc fe 9c e2 3b
       0.039233033 -0.044757612 -0.021704726 0.0069156876
0002e0 d1 8c f8 3c 7a 9a 4b 3c 11 ce 1f bd e6 04 f5 3c
       0.030340584 0.012426967 -0.03901488 0.029909562
0002f0 4b 4e b5 bc 59 b9 2f 3c 70 31 cc bc 46 76 1c bd
       -0.02213206 0.010725343 -0.024925917 -0.03819873
000300 e0 20 01 bc 54 c6 1e 3c 78 1d 11 3d 1f 1b 3b bc
       -0.007881373 0.00969084 0.035428494 -0.01142004
000310 28 bc 03 3d 59 b4 3d 3d 5e c2 b6 bb 68 16 8a 3a
       0.03216186 0.04631457 -0.0055773696 0.0010535242
000320 3c f6 90 3b 2a 02 4a bd 04 f6 c1 bc 5b 41 08 3d
       0.0044238847 -0.04931847 -0.02367688 0.033265453
000330 63 19 fa 3c 9f f7 94 bd 64 ce 22 bb 25 87 b9 3c
       0.030529683 -0.072737925 -0.0024842257 0.02264745
000340 7b aa 34 bd f4 59 5f bd 1a d0 70 bc 49 51 e3 bc
       -0.044107895 -0.054529145 -0.014698053 -0.02774872
000350 84 c4 81 bb 06 54 95 3c e8 87 84 bb 28 01 05 bd
       -0.003960194 0.018228542 -0.0040445216 -0.032471806
000360 a5 eb 5d bc 35 45 23 3d d7 45 d7 3c ca be 26 bd
       -0.013544952 0.039860923 0.02627842 -0.040709294
000370 7c 4d be bc bb 6c 26 bd 20 e8 19 3b 02 9f cd bc
       -0.023230307 -0.040631037 0.0023484305 -0.025100235
000380 42 07 26 bd 93 e8 fe bc f2 b8 b9 3c 8b 0b c3 3c
       -0.040534265 -0.03111676 0.022671197 0.023809215
000390 2c 2a fb 3c 50 14 4f 3b e6 d6 7d bd df f3 59 bd
       0.030659758 0.00315978 -0.06197252 -0.05321109
0003a0 92 4f 2e bd 88 dd c8 3c c6 47 d4 3c 9c 3e f8 bc
       -0.042556353 0.024519697 0.02591313 -0.030303292
0003b0 89 e6 1b bd 49 59 21 3d 2c e8 1e bb 08 8a 58 3c
       -0.038061652 0.03939179 -0.0024247272 0.013216503
0003c0 5c bb 8c 3c 5c b7 d9 bc 23 8e 27 3d 73 00 ef bb
       0.017179184 -0.02657669 0.040907037 -0.0072937547
0003d0 a2 29 c3 3c ed cc 2b bd a2 6f 1e bb 77 b0 7e bd
       0.023823563 -0.04194348 -0.0024175425 -0.06218001
0003e0 d4 20 e5 3c 1a 04 f9 3c 12 25 9d bc be 72 b6 3c
       0.027969755 0.030397464 -0.019182716 0.02227151
0003f0 ff df 28 3d 2a 6f 03 3d ee cf 3c bd aa c4 02 bd
       0.041229244 0.032088436 -0.046096735 -0.031925835

dense2.bias f4 [256]
000000 5f 0c 2f bd e4 03 a1 bb b7 40 30 bc aa c9 d3 bc
       -0.042736407 -0.004913794 -0.010757617 -0.025852997
000010 f9 53 b7 3d 19 d1 4a 3d a1 3a 1a 3e 3f 8a 16 bd
       0.089515634 0.049515817 0.15061428 -0.036752935
000020 d0 fa b2 bc 00 fa 22 bf 40 e2 38 bd 9a 8d 96 be
       -0.021848112 -0.6366272 -0.045137644 -0.29404908
000030 a0 ab 67 ba b3 51 49 bd c6 a2 a3 bd e8 ab 45 bd
       -0.0008837525 -0.04915018 -0.07990031 -0.048259646
000040 be 1a 05 3e 98 8a ca ba 1c 82 c6 be 06 1b 34 bc
       0.12998483 -0.0015452681 -0.3877114 -0.010992771
000050 d4 0b 48 3c 1e 75 0d 3c 14 fc 8f 3d e6 3d 9a bc
       0.012209851 0.00863388 0.07030502 -0.018828344
000060 1a 10 d5 bc 70 06 52 bd fe 23 39 bd 6d cd d5 be
       -0.026008654 -0.05127567 -0.04520034 -0.4175829
000070 bd eb 0d 3e 6c 0a 68 3b 0a b7 10 bd ac 29 69 3b
       0.13859458 0.0035406603 -0.03533081 0.0035577817
000080 12 81 b1 bc 4c cd c5 3d 46 49 bc bd 74 09 34 bd
       -0.02166799 0.09658298 -0.09193663 -0.043954328
000090 03 1d 17 bc 2c 11 85 bd 84 f2 82 bc ac a4 aa 3e
       -0.0092232255 -0.06497416 -0.015984781 0.3332876
0000a0 91 d0 2d bd c8 09 2d bd 4e bc fb be 83 15 ca 3e
       -0.042435233 -0.042245656 -0.49167103 0.39469537
0000b0 14 77 92 bd 08 da 8d ba 0d fa 49 be b2 2a 0a bd
       -0.071516186 -0.0010822425 -0.19724293 -0.033732124
0000c0 90 5f b8 bc cc b1 0f bd 29 d1 8b be 2a 2a 35 bd
       -0.022506505 -0.03508167 -0.27308014 -0.044229664
0000d0 4b ee 3d be d3 b3 a3 bc bb 16 a9 3d 69 28 a8 be
       -0.18547933 -0.019983208 0.082562886 -0.3284333
0000e0 20 ec f2 ba 54 df 0c bd 4e 3c 26 bd 60 9e 7a 3a
       -0.0018533505 -0.03439267 -0.040584855 0.0009560343
0000f0 30 cd 63 bd 52 3f 6b bd 63 46 1c bf 50 58 fb 3a
       -0.055615604 -0.057433434 -0.610449 0.00191761
000100 38 a6 08 bf 64 0d 56 bd 4e 5c 2f bd 2c 20 4e bd
       -0.5337863 -0.052258864 -0.042812638 -0.05032365
000110 9c aa 1b bc f4 92 45 3b dd b0 ae 3e fc 23 1b bd
       -0.009501126 0.0030147405 0.3411931 -0.037876114
000120 fe 80 5b bd 88 fb c2 be c9 34 3b bd ae 57 12 bd
       -0.053589813 -0.38082528 -0.045704637 -0.03572815
000130 ee 28 77 bd 38 d9 49 bd ad 6b cc bd b0 d2 42 bd
       -0.060341768 -0.04927942 -0.09981475 -0.04756421
000140 65 df 0f bf 7c da fa bd 6b 96 4e bd 34 15 1d bd
       -0.5620025 -0.12248704 -0.05043642 -0.0383503
000150 b8 58 f1 3b cc d1 f1 bc de 33 1e bd f9 d5 5e be
       0.0073653124 -0.029518984 -0.038623683 -0.21761312
000160 28 16 a3 bc 74 8f 58 bd fa a2 1e bd ae 92 24 3d
       -0.019908026 -0.052871183 -0.038729645 0.040178947
000170 20 7d 1b bc 1e 07 12 bb a8 14 69 bf 3a e7 84 3e
       -0.009490281 -0.0022282074 -0.91047144 0.25957662
000180 2c 3d 1f bf 14 ce 20 3c aa 32 bc bc 77 f5 35 bd
       -0.62202716 0.009814758 -0.022973377 -0.044423547
000190 67 e2 28 bd d6 52 c4 bc d8 7c a2 bc 87 ae 5a bd
       -0.04123154 -0.02396528 -0.01983492 -0.0533891
0001a0 d0 19 8a bd 15 dc e6 bc 2a 63 0b bd 9a 66 65 bd
       -0.067432046 -0.028181115 -0.034030117 -0.05600605
0001b0 98 84 00 3e a3 2f 24 bd 60 8e b8 bb b8 01 2e bf
       0.1255058 -0.040084492 -0.005632207 -0.6797137
0001c0 9d 6b 70 bd 88 fd 05 bd 8f e6 38 bd 5c ec c7 bd
       -0.058696378 -0.03271249 -0.045141753 -0.09761879
0001d0 21 11 4c bd ed 32 33 bd 44 00 74 bc 66 38 a6 bc
       -0.049821023 -0.04374974 -0.014892641 -0.020290565
0001e0 28 45 1a bd 35 2f e3 3e e3 25 38 bd 02 e5 26 be
       -0.03766361 0.44371954 -0.044958007 -0.16298297
0001f0 fd a0 62 bd 75 d6 08 bd 14 75 80 bd 36 57 bf bb
       -0.05532931 -0.033407647 -0.06272331 -0.005839254
000200 14 c6 ed bc ab c9 9f bd 8e 0c 95 bc 6e 4c cf bb
       -0.029025115 -0.07802137 -0.018194463 -0.00632625
000210 4d b1 b9 bc f4 f2 14 bd 5d ff 0f bd 02 9c 23 bd
       -0.022667551 -0.03636451 -0.035155643 -0.039943703
000220 a3 a1 cb bd ea 02 5f bd 20 aa ef bc 73 78 44 bc
       -0.09942939 -0.05444614 -0.029255927 -0.011991608
000230 dd c7 44 3d b6 89 86 bc 56 16 30 bf f0 b6 93 3b
       0.048042167 -0.016423088 -0.6878408 0.004507892
000240 82 14 fb bd 23 c9 2b bd da 3c 99 bb af 31 97 bd
       -0.12259771 -0.041939866 -0.0046764435 -0.07382523
000250 34 45 a9 bc 96 66 01 bd 22 ae 41 bd db f9 ce be
       -0.020662881 -0.031591974 -0.047285207 -0.40425
000260 b4 05 cd bc e2 34 d6 be 78 b3 a3 be 89 6a d7 3d
       -0.025027134 -0.4183722 -0.3197286 0.10518367
000270 cf 3e 99 bd 28 28 3d bd a6 85 34 bd 98 6e e2 bc
       -0.07482683 -0.046180874 -0.04407277 -0.027640626
000280 c6 04 43 bd 79 e7 e8 be 62 71 91 bd 6a 70 4a bd
       -0.047611974 -0.454891 -0.07101704 -0.049423613
000290 11 ca ab 3e a2 f4 ba bd b4 ba d6 bc 7e e4 2f bd
       0.33552602 -0.09128691 -0.026212074 -0.042942517
0002a0 f1 67 c0 bc be 7d 0a 3f 86 6a 4a bd a4 8a 25 bd
       -0.023487063 0.5409812 -0.049417995 -0.04041542
0002b0 13 51 8d bd 22 43 a6 3c c0 60 ca bd 19 d9 ab 3d
       -0.06900229 0.020295683 -0.09881735 0.083910175
0002c0 d0 1e d5 bc 76 22 92 3e 93 80 0f bd 52 30 41 be
       -0.02601567 0.28541917 -0.035034727 -0.18866089
0002d0 52 b3 57 bd 5c 39 65 be 09 d2 69 3d 5c f2 e5 be
       -0.052661248 -0.22385162 0.05708507 -0.44911468
0002e0 b0 67 f1 bc 2a f1 d5 bc c0 dd ac bc c0 7a b0 bc
       -0.029468387 -0.026115973 -0.021101832 -0.021542907
0002f0 e5 b7 d8 bc 1c f0 b8 3e c4 d3 89 bc b0 a1 e3 bc
       -0.026454875 0.3612069 -0.01682461 -0.02778706
000300 14 00 41 3c fa 88 44 bd 78 d5 69 be a6 1b 31 bd
       0.011779804 -0.047982194 -0.22835338 -0.04323926
000310 76 0c 1e bc 24 01 21 bd 4c c0 08 3b 29 14 3c bf
       -0.009646526 -0.03930773 0.002086657 -0.7346826
000320 bd 17 8d be 61 65 70 bd ac f3 12 bd 6e 51 82 3d
       -0.27557173 -0.058690432 -0.035876915 0.06363188
000330 4c c4 55 3b 1a e7 db bc 54 db 27 3c eb 22 fc bc
       0.0032618223 -0.026843596 0.010245163 -0.030778369
000340 2c e8 25 bd 0a 47 07 bd 73 32 2e bc 2e 28 28 b9
       -0.04050462 -0.033026733 -0.010632145 -0.00016036697
000350 0a d0 b3 bc 8b b7 84 bd e2 0c e3 bc 38 79 77 bc
       -0.021949787 -0.064803205 -0.027716104 -0.015104584
000360 93 15 0b bd c5 65 35 bd 6a c8 90 bc 8c 41 a3 bc
       -0.03395612 -0.044286508 -0.01767369 -0.019928716
000370 2a c5 2a bf af e2 32 bd 3f 1b 28 bd 24 94 96 bc
       -0.667071 -0.043673214 -0.04104161 -0.018381186
000380 bf b4 a2 3b 66 60 4a bd a4 32 c6 bd 3f d9 00 3c
       0.0049653943 -0.04940834 -0.09677628 0.0078642955
000390 0e b3 35 be 88 55 b0 3a b8 c8 1b 3d e8 3e 27 bf
       -0.17744085 0.0013453225 0.038033217 -0.6533036
0003a0 e2 78 18 bd f8 96 de bb 17 b6 52 bd e0 e2 1a ba
       -0.037224658 -0.006792899 -0.051443186 -0.0005908441
0003b0 20 be 13 ba 00 74 25 bd a8 f3 fb bc 55 04 4f bd
       -0.0005635936 -0.04039383 -0.030755833 -0.05054124
0003c0 c3 eb 34 bd 11 d4 af bc ca 21 1f bd de e1 20 bd
       -0.044170152 -0.021463426 -0.038850583 -0.039277904
0003d0 98 98 26 bd c3 fc 0d bf a0 85 36 bd 64 ed c1 bc
       -0.04067287 -0.5546381 -0.04456103 -0.023672767
0003e0 e1 7a dd bc 50 02 a0 bc a2 35 39 3d 04 3f 37 bd
       -0.027036132 -0.019532353 0.045217164 -0.04473783
0003f0 33 92 53 bd b3 3f 73 3d d7 02 8e bd 9c 94 45 bd
       -0.0516531 0.05938692 -0.069341354 -0.048237428

dense3.weight f4 [4, 256]
000000 a5 87 c9 3c 7f 78 9b bb 2b 95 ac 3c c6 41 b3 3c
       0.024600813 -0.004744589 0.021067223 0.02188195
000010 7c c3 8d bf d0 61 ee 3e ee 67 8d 3e d0 4e 3d bd
       -1.1075282 0.46559 0.27618355 -0.04621774
000020 4d 41 a3 bc cd 8f ed 3f c2 0d 43 3d ac 4e 6f 3f
       -0.019928599 1.855951 0.047620542 0.9347942
000030 80 0c 19 3d 10 7a d8 ba ad 5f 51 bf d4 5b 1f 3c
       0.037365437 -0.001651587 -0.81786615 0.009726483
000040 94 5f 6a bf f7 11 9a bd d6 ba 06 bf 4e 52 1f bd
       -0.9155209 -0.07522958 -0.5262884 -0.03889685
000050 ce 4b 3f 3f 33 d5 0b bb d7 d8 e8 be 94 ac 99 bc
       0.74725044 -0.0021336793 -0.45477936 -0.01875905
000060 b4 05 57 bd c4 8d 03 bd d2 51 4c bd 2e f4 57 bf
       -0.052495673 -0.03211762 -0.049882717 -0.84356964
000070 f5 63 45 bf e8 d6 3b 3d 58 aa 81 3c d9 a9 96 3b
       -0.7710565 0.045859247 0.015828297 0.004597884
000080 02 23 58 3d 84 d2 4f bf 8a 91 2d bc 8f 53 51 bd
       0.05276776 -0.81180596 -0.010593781 -0.05110508
000090 0e 47 0c 3d e2 1d 02 be 17 2a 38 ba 1d 1e 18 3f
       0.03424745 -0.12706712 -0.0007025315 0.5942095
0000a0 eb 4d 8f 3d 2a 83 b3 bc 9d 82 4d bf b4 e0 5d bf
       0.069972835 -0.02191313 -0.80277425 -0.86670995
0000b0 cb 9a 42 3d 65 e6 33 bc 72 c0 83 bf 22 7f 10 3c
       0.047510903 -0.010980223 -1.0293105 0.008819373
0000c0 18 1c fb 3c 1c 3a 2a 3d 27 d0 a3 bf 2b 91 16 bd
       0.030653045 0.041559324 -1.2797898 -0.036759537
0000d0 03 10 18 3e d4 aa ce 3c eb 59 1a 3e 6f 67 e6 3e
       0.14849858 0.025227942 0.15073363 0.4500079
0000e0 88 26 d4 bc 2e cb 46 3c 42 f5 74 bd 88 9c e2 3e
       -0.02589728 0.012133403 -0.05980421 0.4426005
0000f0 46 c5 21 3c 0e 99 3d 3d ab 75 b8 3f 62 ea 86 bd
       0.009873694 0.046288542 1.441091 -0.06587674
000100 ae 81 b1 3f 38 7e 99 bf e4 88 f4 bc 10 f4 89 3c
       1.38677 -1.1991644 -0.02985043 0.01684001
000110 10 69 a2 3c 1a 67 eb bb 3e 89 2c 3f 40 07 d2 3c
       0.019825488 -0.0071839215 0.67396915 0.025638223
000120 d4 11 50 3c 60 80 03 c0 c0 9a 83 bc c4 bc 45 3d
       0.012699563 -2.0547104 -0.016065001 0.048275724
000130 7e 18 0f bd 0a 92 f5 bc 01 e7 b3 3e c9 15 46 3d
       -0.034935467 -0.029976863 0.3513718 0.04836062
000140 28 77 e9 3d 4d 45 36 3f a7 af 5d 3d 6f 82 4e 3d
       0.113996804 0.71199495 0.054122593 0.05041736
000150 87 44 12 3d d5 17 46 3d e5 63 aa 3c 7e 84 47 3f
       0.035709884 0.04836257 0.020799587 0.7793654
000160 e5 39 f3 3c f0 42 ac 3c d6 bb a7 bc c3 ed 3f bf
       0.029690692 0.021028012 -0.02047531 -0.7497217
000170 04 a6 d8 3c cf 54 89 3c df f0 00 3f a7 2c 17 bf
       0.02644635 0.016764073 0.5036754 -0.5905251
000180 38 db 43 bf aa c5 1e bd 56 94 bf 3c 4d 10 1f 3d
       -0.76506376 -0.038762726 0.023386162 0.038833905
000190 ce 83 33 bd b8 5b 9e bc a4 7b ca 3c 60 44 56 3c
       -0.04382687 -0.019330844 0.02471716 0.013077825
0001a0 77 a9 14 bd 98 52 1c 3d e8 b4 75 ba ce 17 9f 3c
       -0.036294427 0.038164705 -0.00093729654 0.01942053
0001b0 b7 b7 9d bf c2 7c 28 bd 99 02 57 bd 76 dc 76 3f
       -1.232169 -0.041134603 -0.05249271 0.96430147
0001c0 bb 6f 17 3d 6a b3 46 bd 85 de 4d 3d c3 7d 43 3e
       0.03697179 -0.048510946 0.05026104 0.19090943
0001d0 36 67 2a 3d f3 fc 67 bd 7c c3 5f bb d3 2c 04 3d
       0.041602336 -0.056637716 -0.0034143617 0.03226931
0001e0 28 70 05 bd c8 45 28 3f 54 fc d9 3c 0b df 7a 3f
       -0.032577664 0.6573148 0.026609577 0.97996587
0001f0 48 67 c8 ba a5 58 09 bd bd a9 45 3d d8 8e a7 bc
       -0.0015289569 -0.033531804 0.04825758 -0.020453855
000200 69 08 62 bf 49 b0 dc bc 23 b8 39 bc 01 b9 e2 3c
       -0.8829408 -0.026939528 -0.0113354055 0.027676107
000210 55 2c f8 bc a3 1b 35 bd a7 a6 cf bc b5 58 5b bc
       -0.030294577 -0.04421581 -0.02534802 -0.013387849
000220 15 c0 63 bc 19 51 fd bc e8 7d 99 3c a4 dd 10 3b
       -0.013900776 -0.03092246 0.018736795 0.0022104764
000230 93 20 5d 3f 32 81 d3 3c c0 59 cc 3e f1 36 eb be
       0.8637783 0.025818441 0.39912224 -0.45940354
000240 e2 d2 c3 3e 73 8d 98 be 58 38 03 3d 57 64 68 bc
       0.38246828 -0.29795417 0.032036155 -0.014184079
000250 35 0b 8b 3e a3 5a 33 3d d4 0c 30 bc 3c 3d b2 3f
       0.27156988 0.04378761 -0.010745246 1.3924937
000260 38 8c a4 3c 9e b2 52 3f c2 fd c6 3e 27 dc 4a be
       0.020086393 0.823038 0.38865477 -0.19810544
000270 58 cc 97 bb b0 d4 8e 3c c5 86 c1 3c 40 f9 5d 3a
       -0.004632514 0.017435402 0.023623833 0.0008467622
000280 20 2c c7 3c 0f d8 34 3f 60 d8 20 3d 1c bd 1b 3c
       0.024313033 0.7064218 0.03926885 0.009505536
000290 7b c3 08 3f 2c a2 b3 bb 97 26 17 3d 61 c2 0e 3d
       0.5342328 -0.005481979 0.036902037 0.034853343
0002a0 84 c4 0f bb 74 72 2c 3f 70 28 37 3a b0 80 f9 3c
       -0.00219372 0.6736214 0.00069869217 0.03045687
0002b0 78 33 4f bf 0d aa 01 c0 91 8a e2 bf 97 35 8b 3f
       -0.8093791 -2.026004 -1.7698537 1.0875729
0002c0 c7 4b ec 3c ad 2e fc be fb cc 09 3e ab 9d 39 3f
       0.028844727 -0.4925436 0.134571 0.7250621
0002d0 6f 8f 90 3c 7d 0b c0 bf 0a 03 8c bf 38 cb 84 be
       0.01764652 -1.5003506 -1.0938427 -0.25936294
0002e0 14 19 dd bb c6 d4 a8 bc 9f cc 15 bd 12 53 ea bc
       -0.0067473743 -0.02060927 -0.036572095 -0.028604064
0002f0 58 d4 b6 bc be c1 1c 3f 4d 5e ca bc 5a 4a 6a bd
       -0.02231805 0.6123313 -0.02470317 -0.057199813
000300 4d b6 4a bf 34 f3 96 bc ab 1c 2d 3e 51 ee f2 bd
       -0.7918442 -0.018426515 0.16905467 -0.118618615
000310 2a 2c 5b bd a4 47 82 3d 8a 16 db 3b 15 90 6e bf
       -0.053508915 0.063613206 0.0066860365 -0.931886
000320 0e 40 93 3f 0e 2c 48 bd 9d 7b 33 3c 07 4e 75 bf
       1.1503923 -0.04887014 0.010954765 -0.95822185
000330 35 8f 35 3d a6 c1 f6 3c 4f 9d 20 3d a1 06 3b 3d
       0.044326026 0.030121636 0.03921252 0.04566062
000340 7f 3d 33 bd d3 91 85 3b c3 5c 44 3d 6e e1 c0 bf
       -0.04375982 0.0040762215 0.047940027 -1.5068796
000350 6a a3 08 bd 20 88 e0 39 0b aa 64 bd a6 e7 1e bc
       -0.03335897 0.0004282603 -0.055826228 -0.009698784
000360 b8 f6 47 3d 7e af 14 bd 55 ee 45 3b 27 ad f9 bc
       0.048819274 -0.036300175 0.0030201871 -0.030478073
000370 2c 60 f0 3d e0 6d 40 bc 34 ed 35 3f 3b 45 6b 3e
       0.11737093 -0.011744946 0.7106507 0.22975628
000380 a4 42 23 3e ca 0e c3 3f 3c 73 d0 3c f4 0d b1 3e
       0.1594339 1.5238888 0.025445573 0.34580958
000390 be 04 21 3f 5a 44 31 bd 11 43 27 bf e4 2d 86 3f
       0.6289786 -0.043278076 -0.6533671 1.0482755
0003a0 6a c3 30 3d 42 44 e9 3c 20 77 f3 bc 37 76 4c bc
       0.04315511 0.02847493 -0.02971989 -0.0124793565
0003b0 e3 5b 24 bd fe 3a bf bc 46 6c 1c bd 26 28 97 3b
       -0.040126693 -0.02334356 -0.038189195 0.0046129404
0003c0 22 d5 4a 3d 7c a1 63 3c 78 98 7d 3d 50 d5 a0 bc
       0.049519666 0.013893481 0.061912984 -0.019632965
0003d0 73 fc f1 bc 0a d2 a1 3f ef 28 b8 3c da 56 cc 3b
       -0.029539322 1.2642224 0.022480456 0.0062359395
0003e0 44 6c fb 3b 00 e9 b1 3c 9f 50 4d be e3 d9 31 3d
       0.0076728184 0.021717548 -0.20050286 0.043420684
0003f0 00 4f 82 bd 35 b4 59 be 0b c4 2e 3e 1c e5 f0 3c
       -0.06362724 -0.2126015 0.17066972 0.029406123

dense3.bias f4 [4]
000000 b5 55 66 bf 30 8f 3a bf a3 d5 61 bf e9 9b 55 bf
       -0.8997453 -0.72874737 -0.8821661 -0.83441025
